TeamCode/src/main/assets/BODY.tflite (tflite, 82952 bytes, 11 tensors)

MatMul_2 f4 [3, 256]
00000000: d2a6 49bd 022a a83a efbe b2ba f399 1d3e
00000010: fede 96bb 9887 2f3d 3e8a ca3c 428f 50bd
00000020: be4d cabc df5e f43d fc3e 943c 366c 00bb
00000030: 077c a6bc 652a 2cbe 7a44 7d3d ddf4 91bc
00000040: e227 633d 2029 d9b9 93e3 2cbc 76d9 b33d
00000050: 08fd 573b ae8b 50bc 98a5 013e fe12 793d
00000060: ff9f 36bd 5cff 2d3e 98a2 9cbc 2b8c 503d
00000070: d43a c13d 42cb adbb 000f ed3b 4404 86bd
00000080: e742 e8bd 03c5 0d39 6548 22be 4547 9ebd
00000090: 0fc5 ba3a 6387 033d f714 fa3d 4ddc b73d
000000a0: a3bd 0ebd 07d8 873d 9eed 9eb9 ce62 e4bd
000000b0: 47f3 bd3b a1bc 49be 2c21 923d edf3 4bbd
000000c0: 7641 693c 52e4 9abb ee03 653c 61bd 3bbb
000000d0: d164 0ebe 399e 713d 9386 8bbd 061b 5bbc
000000e0: d56e 22bd 71a5 eabd 32ef 13bd 1930 273c
000000f0: 56f8 4d39 8ec4 bd3b 5eef ee3d f4a6 14bc
00000100: 5f6d 823d 5fda d3ba 2562 1ebe 3586 513a
00000110: b4e7 433c 4db1 c23d 5f8a 37bb 22b1 a7bd
00000120: ac8a bfb9 0731 23be 0f6d b83b aa78 3a3c
00000130: c1d4 60bc 8b28 713d 4ec0 deba 80e5 203a
00000140: 1ca2 22b9 0443 5e3b ea6f c13d a13c f23d
00000150: 918e 3c3b 3a6a 8ebc 1aef 4939 ea85 923d
00000160: a333 d4ba ac8f f637 a2ef 00be 8e06 26be
00000170: 71ec f33c 0ab6 edbd 1061 43be 5c44 d8bd
00000180: 4ab6 e43d 5f33 da3d 4651 113e 0ae8 9f3d
00000190: 4f2f d3bc 64a2 173d 8b04 49bc 3954 1e3b
000001a0: 089a 1f3c d3fc 27bc 7d20 9bbd c5ea cebc
000001b0: a8fa 3fbc 4055 dcbd f713 69bd 7303 22bc
000001c0: 9cd3 79bd 4f96 41bd 2e2f 503a cf11 2dbe
000001d0: 8b5f d3bd 44f1 f93b e4f2 51bc 8652 24bb
000001e0: 340d c5bd c4a6 953d 3703 f3bd fd6b 08bc
000001f0: a66a 073c 8635 f9bb 7083 0b3c 4f6a 13bc
00000200: 219c d73c 3bee 7abd 391e 853d 3971 e43c
00000210: 6ccb b539 9f32 3abd 80b1 49bc a90b aa3b
00000220: 778d 2c3d ae39 8cbc 589f a53c 1f00 6b3d
00000230: f70e e0bb a236 443d 5913 0a3e 4cfc 27ba
00000240: bb3c ab3c d024 01bc 6c21 09be cecf 7abd
00000250: 703f 1abd 64cb 7eba 5ae8 cd3d fd84 c0ba
00000260: 0e21 49bd f3d8 acbb 5c9e 523e fcf5 c73d
00000270: af72 2abb 2882 bd3d 418f 903c e6d6 36bb
00000280: f356 2c3e 080b 8d3b f865 f83c e4cf 413b
00000290: 24ba c0bc abba fb3d b1ab c0bc 98ab 153d
000002a0: a9ff 173a 0c2f 2ebd 8565 ca3c c6fa 5ebc
000002b0: b01f a0bc 5025 463e ebf2 aebd 0c0c c43a
000002c0: 170c 153c a7c1 0abd 6f0c 8abc 3f0e ab3d
000002d0: 818b bc39 0861 133e c3f4 59bc 9296 dc3d
000002e0: 22ae aab8 d283 a5bd 2956 0e3c 4de5 1abe
000002f0: bb84 dfbd 3a7e 063e 7df0 2cbc 97b6 0abd
00000300: 000a cc39 8dc1 c4bb adac 493b 13d7 ed3b
00000310: fb3c 66be f354 f13b 16f7 f7ba 6b4d 0ebe
00000320: 7483 933c 6959 4fbc c1ef 0a3e dcb6 d43b
00000330: e471 0e3c aaea a9bd 2477 b33c f5a1 d53d
00000340: f109 fdbd 4c5f acbd 0188 91bd 6043 a1bc
00000350: 7898 69bc 99d7 b0bd 5916 b5bc 6c68 b1bb
00000360: b508 8bbd e321 6ebd f0fc 21be 36b9 ac3b
00000370: b2b4 8f38 7695 ee3c 856e f23c 406d 01ba
00000380: ca46 f13d 61c8 e9bb b9de a03b 046f 9fbd
00000390: 7f5f aa3c 847c 1fb9 6d42 4abe 11b7 9ebd
000003a0: 2fdf 083e f11f 16be e4e7 f7ba 69dc 4f3a
000003b0: 1539 30bd bfdc a2bd 16aa 5b3d 69b1 11bd
000003c0: e10b 2bbc d7ed 283c 96b0 053d be8d 0cbe
000003d0: 0a71 5b3c c22e fdbc c505 be3a 18a9 00be
000003e0: bdd1 203e 0757 0ebe 3bb6 a73d ee44 1bbd
000003f0: c0be 0e3c 153f 02bc 22c2 8abc e23c 883d
-0.049231358 0.0012829902 -0.0013637225 0.15390758 -0.0046042195 0.04285392 0.024724122 -0.05091787
-0.024695273 0.11932158 0.01809644 -0.0019595749 -0.020322813 -0.16813047 0.061832882 -0.017816955
0.055457957 -0.00041420106 -0.010552305 0.08781712 0.0032957215 -0.012728615 0.12660825 0.060809128
-0.044586178 0.16991943 -0.0191205 0.050914925 0.09435049 -0.0053037712 0.007234454 -0.06543782
-0.113408856 0.000135202 -0.15847929 -0.07728437 0.0014249402 0.032111537 0.1221103 0.08977566
-0.03484882 0.06633001 -0.00030313147 -0.11151658 0.005796823 -0.19700862 0.07135233 -0.049793173
0.0142367985 -0.004726925 0.013977988 -0.0028646814 -0.13905646 0.058988784 -0.06812777 -0.013373142
-0.03965648 -0.11457337 -0.036116786 0.0102043385 0.00019642836 0.0057912534 0.116667494 -0.009073008
0.06368517 -0.0016163102 -0.15467127 0.00079927157 0.011957098 0.09506474 -0.002800606 -0.08188082
-0.00036533677 -0.15936671 0.005628235 0.011381308 -0.0137225995 0.058876555 -0.0016994567 0.0006137714
-0.00015509914 0.0033914456 0.09445174 0.1182797 0.00287715 -0.017384637 0.00019257926 0.07154448
-0.0016189705 2.9392388e-05 -0.12591413 -0.16213438 0.02977583 -0.11606987 -0.19079995 -0.105599135
0.111675814 0.106543295 0.1419116 0.0780793 -0.025779394 0.037020102 -0.01226915 0.0024159087
0.009741314 -0.010253149 -0.07574556 -0.025258431 -0.011717476 -0.10758448 -0.056903806 -0.009888518
-0.060992822 -0.047262486 0.00079416006 -0.16901325 -0.10320958 0.007627638 -0.012814257 -0.0025073602
-0.09621659 0.07307199 -0.118658476 -0.008326528 0.008265173 -0.0076052574 0.008515224 -0.008997514
0.026319565 -0.06126235 0.06499905 0.02788602 0.0003467457 -0.045458432 -0.012310386 0.0051893783
0.0421271 -0.017117348 0.020217583 0.057373162 -0.0068377214 0.047903664 0.13483943 -0.00064081396
0.020902982 -0.007882312 -0.13391656 -0.061233334 -0.037658155 -0.00097196386 0.10054083 -0.0014688071
-0.04910379 -0.005274886 0.20568222 0.09763715 -0.0026008298 0.09253341 0.017646434 -0.0027899086
0.16830043 0.0043042935 0.03032206 0.0029573375 -0.023526259 0.122914635 -0.023519369 0.036540598
0.0005798289 -0.042525336 0.024706611 -0.013609594 -0.01954636 0.19350171 -0.08542427 0.0014957204
0.009097121 -0.033876088 -0.016851632 0.083523266 0.00035962093 0.14392483 -0.013302985 0.107709065
-8.1386665e-05 -0.08081783 0.008687534 -0.15126534 -0.10913988 0.13134089 -0.010555384 -0.033865537
0.00038917363 -0.0060045184 0.0030773089 0.007258305 -0.224842 0.007364863 -0.0018918242 -0.1389672
0.018007018 -0.012655594 0.13568021 0.006491525 0.008694146 -0.08296712 0.021907397 0.104312815
-0.12355412 -0.08416614 -0.07106019 -0.019685447 -0.014257543 -0.08634872 -0.022105383 -0.0054140594
-0.0678877 -0.058137786 -0.15819144 0.0052711023 6.8524285e-05 0.029124003 0.029593715 -0.0004937239
0.1178108 -0.0071344827 0.004909363 -0.077848464 0.02079749 -0.00015209807 -0.19751902 -0.07749761
0.13366388 -0.14660622 -0.0018913713 0.0007929267 -0.043023188 -0.0795226 0.053629003 -0.035569582
-0.010439844 0.010310612 0.03263911 -0.13725945 0.01339365 -0.030906085 0.0014497569 -0.12564504
0.15705009 -0.13900386 0.081890546 -0.037907533 0.0087124705 -0.00794961 -0.016938273 0.066522375

onnx_tf_prefix_/_continuous_distribution/Mul f4 [3, 256]
00000000: 0000 0080 0000 0000 0000 0080 0000 0000
00000010: 0000 0080 0000 0000 0000 0000 0000 0080
00000020: 0000 0080 0000 0000 0000 0000 0000 0080
00000030: 0000 0080 0000 0080 0000 0000 0000 0080
00000040: 0000 0000 0000 0080 0000 0080 0000 0000
00000050: 0000 0000 0000 0080 0000 0000 0000 0000
00000060: 0000 0080 0000 0000 0000 0080 0000 0000
00000070: 0000 0000 0000 0080 0000 0000 0000 0080
00000080: 0000 0080 0000 0000 0000 0080 0000 0080
00000090: 0000 0000 0000 0000 0000 0000 0000 0000
000000a0: 0000 0080 0000 0000 0000 0080 0000 0080
000000b0: 0000 0000 0000 0080 0000 0000 0000 0080
000000c0: 0000 0000 0000 0080 0000 0000 0000 0080
000000d0: 0000 0080 0000 0000 0000 0080 0000 0080
000000e0: 0000 0080 0000 0080 0000 0080 0000 0000
000000f0: 0000 0000 0000 0000 0000 0000 0000 0080
00000100: 0000 0000 0000 0080 0000 0080 0000 0000
00000110: 0000 0000 0000 0000 0000 0080 0000 0080
00000120: 0000 0080 0000 0080 0000 0000 0000 0000
00000130: 0000 0080 0000 0000 0000 0080 0000 0000
00000140: 0000 0080 0000 0000 0000 0000 0000 0000
00000150: 0000 0000 0000 0080 0000 0000 0000 0000
00000160: 0000 0080 0000 0000 0000 0080 0000 0080
00000170: 0000 0000 0000 0080 0000 0080 0000 0080
00000180: 0000 0000 0000 0000 0000 0000 0000 0000
00000190: 0000 0080 0000 0000 0000 0080 0000 0000
000001a0: 0000 0000 0000 0080 0000 0080 0000 0080
000001b0: 0000 0080 0000 0080 0000 0080 0000 0080
000001c0: 0000 0080 0000 0080 0000 0000 0000 0080
000001d0: 0000 0080 0000 0000 0000 0080 0000 0080
000001e0: 0000 0080 0000 0000 0000 0080 0000 0080
000001f0: 0000 0000 0000 0080 0000 0000 0000 0080
00000200: 0000 0000 0000 0080 0000 0000 0000 0000
00000210: 0000 0000 0000 0080 0000 0080 0000 0000
00000220: 0000 0000 0000 0080 0000 0000 0000 0000
00000230: 0000 0080 0000 0000 0000 0000 0000 0080
00000240: 0000 0000 0000 0080 0000 0080 0000 0080
00000250: 0000 0080 0000 0080 0000 0000 0000 0080
00000260: 0000 0080 0000 0080 0000 0000 0000 0000
00000270: 0000 0080 0000 0000 0000 0000 0000 0080
00000280: 0000 0000 0000 0000 0000 0000 0000 0000
00000290: 0000 0080 0000 0000 0000 0080 0000 0000
000002a0: 0000 0000 0000 0080 0000 0000 0000 0080
000002b0: 0000 0080 0000 0000 0000 0080 0000 0000
000002c0: 0000 0000 0000 0080 0000 0080 0000 0000
000002d0: 0000 0000 0000 0000 0000 0080 0000 0000
000002e0: 0000 0080 0000 0080 0000 0000 0000 0080
000002f0: 0000 0080 0000 0000 0000 0080 0000 0080
00000300: 0000 0000 0000 0080 0000 0000 0000 0000
00000310: 0000 0080 0000 0000 0000 0080 0000 0080
00000320: 0000 0000 0000 0080 0000 0000 0000 0000
00000330: 0000 0000 0000 0080 0000 0000 0000 0000
00000340: 0000 0080 0000 0080 0000 0080 0000 0080
00000350: 0000 0080 0000 0080 0000 0080 0000 0080
00000360: 0000 0080 0000 0080 0000 0080 0000 0000
00000370: 0000 0000 0000 0000 0000 0000 0000 0080
00000380: 0000 0000 0000 0080 0000 0000 0000 0080
00000390: 0000 0000 0000 0080 0000 0080 0000 0080
000003a0: 0000 0000 0000 0080 0000 0080 0000 0000
000003b0: 0000 0080 0000 0080 0000 0000 0000 0080
000003c0: 0000 0080 0000 0000 0000 0000 0000 0080
000003d0: 0000 0000 0000 0080 0000 0000 0000 0080
000003e0: 0000 0000 0000 0080 0000 0000 0000 0080
000003f0: 0000 0000 0000 0080 0000 0080 0000 0000
-0.0 0.0 -0.0 0.0 -0.0 0.0 0.0 -0.0
-0.0 0.0 0.0 -0.0 -0.0 -0.0 0.0 -0.0
0.0 -0.0 -0.0 0.0 0.0 -0.0 0.0 0.0
-0.0 0.0 -0.0 0.0 0.0 -0.0 0.0 -0.0
-0.0 0.0 -0.0 -0.0 0.0 0.0 0.0 0.0
-0.0 0.0 -0.0 -0.0 0.0 -0.0 0.0 -0.0
0.0 -0.0 0.0 -0.0 -0.0 0.0 -0.0 -0.0
-0.0 -0.0 -0.0 0.0 0.0 0.0 0.0 -0.0
0.0 -0.0 -0.0 0.0 0.0 0.0 -0.0 -0.0
-0.0 -0.0 0.0 0.0 -0.0 0.0 -0.0 0.0
-0.0 0.0 0.0 0.0 0.0 -0.0 0.0 0.0
-0.0 0.0 -0.0 -0.0 0.0 -0.0 -0.0 -0.0
0.0 0.0 0.0 0.0 -0.0 0.0 -0.0 0.0
0.0 -0.0 -0.0 -0.0 -0.0 -0.0 -0.0 -0.0
-0.0 -0.0 0.0 -0.0 -0.0 0.0 -0.0 -0.0
-0.0 0.0 -0.0 -0.0 0.0 -0.0 0.0 -0.0
0.0 -0.0 0.0 0.0 0.0 -0.0 -0.0 0.0
0.0 -0.0 0.0 0.0 -0.0 0.0 0.0 -0.0
0.0 -0.0 -0.0 -0.0 -0.0 -0.0 0.0 -0.0
-0.0 -0.0 0.0 0.0 -0.0 0.0 0.0 -0.0
0.0 0.0 0.0 0.0 -0.0 0.0 -0.0 0.0
0.0 -0.0 0.0 -0.0 -0.0 0.0 -0.0 0.0
0.0 -0.0 -0.0 0.0 0.0 0.0 -0.0 0.0
-0.0 -0.0 0.0 -0.0 -0.0 0.0 -0.0 -0.0
0.0 -0.0 0.0 0.0 -0.0 0.0 -0.0 -0.0
0.0 -0.0 0.0 0.0 0.0 -0.0 0.0 0.0
-0.0 -0.0 -0.0 -0.0 -0.0 -0.0 -0.0 -0.0
-0.0 -0.0 -0.0 0.0 0.0 0.0 0.0 -0.0
0.0 -0.0 0.0 -0.0 0.0 -0.0 -0.0 -0.0
0.0 -0.0 -0.0 0.0 -0.0 -0.0 0.0 -0.0
-0.0 0.0 0.0 -0.0 0.0 -0.0 0.0 -0.0
0.0 -0.0 0.0 -0.0 0.0 -0.0 -0.0 0.0

onnx_tf_prefix_/_continuous_distribution/Mul1 f4 [3]
00000000: 0000 0000 0000 0000 0000 0080
0.0 0.0 -0.0

onnx_tf_prefix_/network_body/observation_encoder/processors.0/normalizer/Div;Const_9 f4 [9]
00000000: 79b1 9a3f a8a8 9c3f 64c5 b43f b554 b53f
00000010: ea3f b53f 16ed b43f b23b 0040 6730 d73f
00000020: cd61 dc3f
1.208541 1.223897 1.4122739 1.4166476 1.416013 1.4134853 2.0036435 1.6811646
1.7217346

Const_10 f4 [9]
00000000: 5f2e c8bb 719e 51bb 03a7 b939 a8d3 843b
00000010: d541 02bc 0326 0f3b 9c10 f13e c2d8 41bb
00000020: ab1e 523a
-0.0061090435 -0.0031985308 0.00035410383 0.0040535517 -0.007950266 0.0021842725 0.47082984 -0.002957866
0.0008015434

Const_2 f4 [1, 3]
00000000: 2776 30c0 7d6e 36c0 65f0 70c0
-2.7572114 -2.8504937 -3.7646725

Const_3 f4 [3]
00000000: 55e4 5a3c c727 a63b 144c 46bc
0.013360103 0.00507066 -0.012103099

Const_5 f4 [256]
00000000: 1a4f 8abd 8832 1abd 710a 3abd a379 813d
00000010: bb33 8abd da3d 0c3d da33 3abd 3120 623b
00000020: be0e c0bd cb93 0d3d 18e7 8ebd b85d bebd
00000030: 3359 6abd b60e 13bd a2f8 f2bc a259 e73c
00000040: 996d 0d3c ac20 c4bd 7d20 cebc e155 09bc
00000050: 0a88 f5bd 7bac c5bc f7d0 123d 85ee 44bd
00000060: 2be7 4bbd d0d0 193d 6f2c 853d ee72 eebc
00000070: c316 273c fb34 5fbd dc95 68bd 9909 a2bd
00000080: a39b ac3c 3e05 15bd 3765 363d ccae 66bd
00000090: d8f4 3bbd e5b3 8fbd 4ea9 d63c 37f1 a1bc
000000a0: 2a29 9bbd 1d6d debc 92bb 073b e094 ecbb
000000b0: 21c7 83bd 2e52 6d3d 69d9 c2bc 7399 0fbd
000000c0: e377 67bd dd76 90bd ce3e 7abd 3e67 adbd
000000d0: 11af d23c 4770 bc3c e445 ddbc f823 9abd
000000e0: 0d45 773b a945 0bbd f86e 66bd d549 7cbd
000000f0: b53b d4bd c24d a7bd 38f0 ff3b f96a 55bd
00000100: da4e ef3b c128 a8bd 0d7d d23c 4c49 2abc
00000110: 9e2d 3ebd 8fb7 93bc 70ea 2ebd a797 db3c
00000120: 1d8a aabc c0ce aa3c ba35 90bd 782b 6ebd
00000130: b274 98bd b5f0 16bd 91cf 0dbb f0b8 8ebc
00000140: e6a4 00bc 419b 653d 8b57 833a 0d3b 493b
00000150: d5a0 e0bd 2262 2fbd 5383 f8bc f9a9 b0bb
00000160: 4dd7 9ebd fc99 afbd 02ef 6f3c 338f 0e3d
00000170: 979f c1bc 94df 89bc 3564 843d ffa2 0a3d
00000180: e435 813c 3847 803c 29ef 003c c32c ffbc
00000190: 367e 2abd 8339 7bbb e64e 98bd 984a 3ebd
000001a0: 90f0 85bd b6f9 4c3c 87c5 4cbb 98df 8ebd
000001b0: 8538 a0bd ed5c 503d c790 22bd 4571 b0bc
000001c0: 3df6 eabc 425f 4ebd ab96 aabc 07cc c8bc
000001d0: 0390 a5bc 1a9e 3f3c bc26 b6bd 0bf6 5bbd
000001e0: abaf 24bd 6adf 83bd bb20 233d 91a5 a5bd
000001f0: 39e4 aebd fd27 97bd 9d94 c8bb 7306 5fbd
00000200: 555c 02bd effa ccbb 7cd0 4cbd bb39 46bd
00000210: b4cb 1e3c ff35 81bc 86cd babd 5d24 b0bc
00000220: 1864 5dbc b00b c9bd bc93 9abc 3883 a0bc
00000230: 634a aabd 605f 5ebd 767e a23b d4cf bbbd
00000240: dbf2 133d 8bab 513d 212a d93b 604a c23c
00000250: f899 e7bc 6cb0 9bbc 9025 c33c 9fde 51bd
00000260: 9e6a 7bbd a1ac babd 10a8 963d 1ab2 9b3c
00000270: e9de 67bd d649 543c cdee 26bd f093 f6bd
00000280: 8018 043d 40e4 e4bd dafb 44bd ac15 5ebd
00000290: d945 69bd dbfc d63b 97c3 afbd 8a30 35bc
000002a0: 52da 82bd f912 cabc 4716 84bc 86c1 5abd
000002b0: 97f5 3ebd 37fe 0c3d 09e8 ccbb a06e dfbd
000002c0: 4851 9bbc 7487 fdbc 3162 b0bd a020 3cbb
000002d0: 7452 b5bc 6e8d 563d 28ab 9bbd bb6a 4c3d
000002e0: f764 e0bc 093b 333c 831a a0bd d112 1d3c
000002f0: 3701 c93c 9692 f13c 661c b3bd 3373 063d
00000300: 8860 7e3b ae0c 05be 9d88 81bb 1909 b7bd
00000310: e8c4 623d 6c0c 47bd 68dd b9bd 4d1b 90bc
00000320: f57d 76bd 3bfe 0fbd 2ead ce3c 3061 743c
00000330: a00d a8bd 8556 9c3c 3a06 3abd 9087 a738
00000340: c622 123d 6d78 093d 2c0c 21bd c053 edbc
00000350: 96ed b2bd 1fde 8d3c 6ce3 5bbd 8f2a cebd
00000360: 94f1 76bd 3fe5 3ebd 75dc 093d 2002 24bd
00000370: 797b d6bd 9c75 2fbd 9abc 70bd ae73 3ebd
00000380: 2d72 95bc f682 23bd 8fc9 3dbd e521 dabc
00000390: 20fd c3bc 990f 31bc d641 ad3d a960 31bd
000003a0: 6858 943d 4a95 ae3b a953 a9bd 6062 d4bc
000003b0: 4c74 f53c 2b74 e9bc cf09 57bd 0f3b 1fbd
000003c0: 8ccb 4fbd 28a1 8bbd 078f 3fbc bedd 8f3c
000003d0: 89c7 97bc 0387 27bd 8392 e1bd d9ce 203d
000003e0: 8d6c c63c 88d9 923d bad3 e2bc 22d1 08bc
000003f0: 1aeb 2dbd dd5f 48bd 84bd c3bd 2d3c 2b3b
-0.06753369 -0.037645847 -0.045420114 0.063220285 -0.06748148 0.034238674 -0.045459606 0.003450405
-0.09377812 0.034564774 -0.069776714 -0.09295219 -0.057213973 -0.0359027 -0.029659573 0.028240982
0.008632087 -0.09576544 -0.025161976 -0.0083822915 -0.11988838 -0.024130097 0.035843816 -0.048079032
-0.049781006 0.037552655 0.06502616 -0.029107537 0.010198298 -0.054493885 -0.056783542 -0.07911987
0.021070307 -0.036381952 0.04453012 -0.056319043 -0.045887798 -0.07016734 0.026203778 -0.01976834
-0.07576211 -0.027151639 0.0020711166 -0.0072198957 -0.06434465 0.0579397 -0.02378531 -0.03505845
-0.056510817 -0.07053921 -0.06109505 -0.084669575 0.025718244 0.023002757 -0.027010866 -0.07526392
0.0037730366 -0.03400198 -0.05625817 -0.06159385 -0.10362951 -0.08169128 0.0078106187 -0.05210397
0.007303101 -0.08210898 0.025694394 -0.010393452 -0.046430223 -0.018031863 -0.042704046 0.026805712
-0.02081781 0.02085054 -0.070414975 -0.058146924 -0.07444133 -0.03685065 -0.0021638612 -0.01742217
-0.007851815 0.056056265 0.0010020597 0.0030705363 -0.10968176 -0.042818196 -0.030336058 -0.005391356
-0.07755909 -0.08574292 0.014644386 0.034804534 -0.023635669 -0.016830243 0.064644255 0.03384685
0.015772767 0.01565896 0.00786952 -0.031149274 -0.04162427 -0.003833384 -0.07436924 -0.046457857
-0.06540024 0.012510708 -0.0031245665 -0.06976241 -0.0782328 0.05086987 -0.03968885 -0.021538386
-0.028681869 -0.050383814 -0.020823797 -0.02451135 -0.020210272 0.011695409 -0.08894107 -0.05370144
-0.040206593 -0.06439097 0.039826136 -0.0808822 -0.08539624 -0.07380674 -0.0061212317 -0.05444951
-0.031826336 -0.0062554996 -0.050003514 -0.0483949 0.009692121 -0.015772818 -0.09121232 -0.021501714
-0.013512634 -0.09816682 -0.018869273 -0.01959382 -0.083149694 -0.054290175 0.004958923 -0.091704994
0.036120277 0.051188987 0.0066273366 0.023717105 -0.02827166 -0.019005023 0.023821622 -0.0512377
-0.061380975 -0.091149576 0.07356274 0.019005824 -0.056609068 0.012957057 -0.040755082 -0.120399356
0.032249928 -0.11176348 -0.048091747 -0.054219887 -0.056951378 0.0065609044 -0.08582228 -0.011058936
-0.063892975 -0.02466725 -0.016123904 -0.053407215 -0.04662093 0.034422126 -0.0062532467 -0.10909772
-0.018959656 -0.030948378 -0.086124785 -0.002870597 -0.022134043 0.05238097 -0.07601005 0.049906474
-0.027391894 0.010939368 -0.07817557 0.009587006 0.024536712 0.029488843 -0.08745651 0.032824706
0.0038814861 -0.12993118 -0.003953053 -0.08937282 0.055363566 -0.04859583 -0.09075433 -0.017591143
-0.060178716 -0.035154562 0.025229063 0.014915749 -0.08205724 0.019084224 -0.045416094 7.988431e-05
0.035677694 0.033562113 -0.03931825 -0.0289706 -0.08736722 0.01731783 -0.053683683 -0.10066711
-0.06028898 -0.046605345 0.03365751 -0.04004109 -0.10472769 -0.04283677 -0.058773614 -0.04649704
-0.01824292 -0.039919816 -0.0463348 -0.02662749 -0.02392441 -0.010806941 0.08459823 -0.043305073
0.07243425 0.0053278552 -0.0826791 -0.025925815 0.029962681 -0.028497776 -0.05249959 -0.038874682
-0.050731227 -0.068178475 -0.011691815 0.01756179 -0.018527763 -0.04090024 -0.11014273 0.039259765
0.024221683 0.07170397 -0.02768885 -0.008350642 -0.04246054 -0.048919547 -0.095576316 0.0026128397

Const_7 f4 [256]
00000000: 7d38 19be 4669 813d 0d3e 01bd 5f26 86bb
00000010: 6516 99bc c35a 2b3d 3c37 2f3c 98c9 2bbc
00000020: d3ec 823d 89be 15bd 01f3 dfbb f42d fd3c
00000030: 8e45 713b a941 043d 1d56 963d 276e 4fbd
00000040: 4e81 183d 6b7b 56bc 8728 803c 1548 b93d
00000050: f183 8dbb 96af af3c 8586 073d 08f8 d4bd
00000060: 5f14 ab3b eac1 dabc 8fca d03b 1825 a8bc
00000070: 3475 ee3c 412b a53d 7ae5 833d 5a84 513c
00000080: 5a0f fc3d a0ca fa3d 0bbb f2bb 594e 143d
00000090: a22e 15bb a3f5 193c 88fa 393d d012 61bc
000000a0: 03b9 013d 9428 d63d c42d b63b fc80 4dbc
000000b0: 5b38 ec3c 4372 293d e292 95bc 413f dc3a
000000c0: 745e d3bb 36e2 b1bc a502 f83b 0150 08bc
000000d0: 0b3d a23b eaf7 06bc 1ce6 ab3d ff0a afbb
000000e0: 1d1b 8fbc 13c9 8ebd cecd 433d a4ac 43bc
000000f0: 05d3 32bc 66ec 10bc 048f 5f3d b010 133d
00000100: 8577 f9bc bc52 5f3c ee82 9abd b512 393c
00000110: dffb e83a 02b1 2c3b ffe6 9ebc 67b8 0dbc
00000120: dac8 34bd 0c71 cbbc 785a dcbc 2306 05bd
00000130: 09f8 203d 0e2b 22bd fa6a 5f3b b8ce 3b3c
00000140: f91a 17bd b363 583d 54ac cdbc 69ef 9d3a
00000150: 4ed0 ad3b faf8 2bbb 6542 11bc 512a a7bb
00000160: 0887 863c 9656 81bc e4f9 f6bc 1f9f 903d
00000170: 7924 adbc f01e b8ba b860 0d3d 664f 2cbd
00000180: a730 453d a361 e73c cb40 a6bc 5d30 bf3c
00000190: 53c4 963d fd74 af3d c017 75bc 39a4 6bbd
000001a0: cc2f a03c e0df 993b 5f82 e5bc f8d4 58bc
000001b0: 3dd6 cbbb fb26 6e3d a9f5 893c 1df6 cb3c
000001c0: e89e 16bc 9ec5 4f3d 57dc 5a3d e15f 3b3c
000001d0: b72b ce3c 0d34 45bc aca0 14bb 0e91 913c
000001e0: 184e d7bb a9d9 663e 01f1 683c 9255 4ebc
000001f0: b099 62bc 652c d93c b85a 07bd 88d8 2c3c
00000200: 2590 133b b7ad 14bd 4fc7 9abb fb8f 063e
00000210: f62d dc3c 4ecc 243d e31a 473b 45de fb3c
00000220: 9836 0b3c 7e5c 713d 4923 a4bc 6b7f eebc
00000230: 0a0a 213e 15f9 e33c 0089 1d3d 01c1 e539
00000240: 89c3 f9bb 80cc 64bd aa78 d1bc 7431 c3bc
00000250: 5f06 a93d 7bdb 323d b8b9 49bc 1696 6ebc
00000260: 2c4e aebc 1aae 02bd 4764 4dbc dd5f f53c
00000270: 8e7e cabc 2057 2fbc c42e 1f3d a8c2 163c
00000280: 1e10 19bd 37ef d239 d96a 04bd 769f 6d3d
00000290: 8ab5 d93c e521 2ebd fd77 eebc ce2a d43d
000002a0: 0eb6 853d cf7f 093e c1c6 ad3c 04b1 473d
000002b0: 4de6 59bc addf 273c 1f85 1a3d 12f3 e4bb
000002c0: b929 91bc 60a8 913b 68e4 43bd 6334 ac3d
000002d0: 234d 2ebd 42ec a1bc 14ed ecbc 2190 203b
000002e0: 172c 743d fe04 b63d a8db 8d3d efd7 623c
000002f0: 6664 67bc fc9e 123c 7319 fe3d 44fd be3c
00000300: d851 0fbb 0121 cf3c ded7 b93c f383 12bd
00000310: 2783 fbbc bcb5 dbbc fd30 42bd 3825 d2bc
00000320: 6d5c 383b da89 93bb 5dca 513d d23f 70bd
00000330: 89ee 2abc c63b c73c ddfd c43c c571 2d3d
00000340: 75c9 aa3d b9f8 4cbb d2fa 083d 9278 143d
00000350: 1ee5 813d 73fc c23d f0a8 993b 1937 bf3d
00000360: dc3b 02bc 4abb 143d 0286 87bd c568 893a
00000370: 1fd4 973d a19e 27bd c812 bfbc 02ef 51bc
00000380: f3be 3fbb 11cb 87bc 70fd 863c da12 c1bc
00000390: 9c81 0e3d b339 e9bc 5b86 a63d e421 8cbc
000003a0: a1f7 673d c74e c5bc d825 f83c 4a9a 8c3c
000003b0: 12bc 64bc eb5b 073e fad2 35bc ca0a 4a3d
000003c0: b6c3 163d b365 ca3c 3d04 b63c 6c3b 9e3c
000003d0: b1e1 a13d 2072 883d a5e7 a7bd 4694 18bd
000003e0: 4106 69bc 0017 cb3d e4af e5bc 9260 24bd
000003f0: 07ce 493d 9545 cd3d ec7c 28bc 1a08 0dbc
-0.14962955 0.063189074 -0.031553317 -0.0040939297 -0.018687436 0.041834604 0.010694321 -0.010485075
0.06392827 -0.03655866 -0.0068343882 0.030905701 0.003681514 0.03228918 0.073406436 -0.05064216
0.03723269 -0.013090949 0.015644325 0.09046952 -0.004318707 0.02144603 0.033087272 -0.10398871
0.0052209343 -0.026703794 0.006371803 -0.0205255 0.029108621 0.08064891 0.064402536 0.012787903
0.123076156 0.12245679 -0.007407551 0.03620753 -0.002276339 0.009396943 0.04540494 -0.013737395
0.03167058 0.104569584 0.005559655 -0.012542959 0.028835466 0.041368734 -0.018258516 0.0016803519
-0.0064504687 -0.021714311 0.0075686746 -0.008319856 0.0049511245 -0.008237818 0.08393499 -0.005341887
-0.017468983 -0.069719456 0.047803693 -0.011943016 -0.010914569 -0.008845424 0.05457975 0.035904586
-0.0304525 0.013630565 -0.07544504 0.011295964 0.0017775259 0.0026350622 -0.019397257 -0.008649922
-0.04413686 -0.024834178 -0.026898608 -0.032476556 0.039299045 -0.03959184 0.0034090863 0.01146286
-0.036890958 0.052829456 -0.025106587 0.0012049499 0.005304373 -0.002624093 -0.008865927 -0.00510148
0.01642181 -0.015788358 -0.030148454 0.070616 -0.021135556 -0.0014047306 0.034516066 -0.042067908
0.0481421 0.028244799 -0.020294568 0.023338491 0.073616646 0.085672356 -0.014959276 -0.05752966
0.019554041 0.0046958774 -0.028016267 -0.013234369 -0.0062206076 0.058142643 0.016840773 0.02489763
-0.00919316 0.05072557 0.05343279 0.0114364335 0.02516733 -0.012036336 -0.0022678776 0.017769363
-0.006570589 0.22543968 0.014217616 -0.012593644 -0.013830587 0.026510427 -0.0330455 0.010549672
0.0022516337 -0.03629848 -0.0047234665 0.13140862 0.026877385 0.040233903 0.0030381016 0.030745635
0.008496903 0.058926098 -0.020036357 -0.029113492 0.15726486 0.027828733 0.03846073 0.00043822083
-0.0076221866 -0.05585909 -0.025570232 -0.023827292 0.08253168 0.043666344 -0.012312345 -0.01456215
-0.02127751 -0.031904317 -0.012536115 0.029952938 -0.02471855 -0.010701925 0.03886296 0.009201683
-0.037368886 0.0004023255 -0.03232846 0.058013402 0.026575822 -0.042512793 -0.02910995 0.10359727
0.06528865 0.13427661 0.021212937 0.0487528 -0.013299537 0.0102462 0.03772461 -0.006986984
-0.01772009 0.0044451207 -0.047825247 0.084084295 -0.042554032 -0.019765977 -0.028921641 0.002449997
0.05961236 0.08887671 0.06926662 0.013845428 -0.014123058 0.008949038 0.12407198 0.023314126
-0.002186885 0.025284292 0.022685941 -0.035770368 -0.030702187 -0.026820056 -0.04741 -0.025652513
0.0028131262 -0.004502517 0.05121838 -0.058654614 -0.010432848 0.024320494 0.024046833 0.042344827
0.08339206 -0.003127618 0.033442326 0.036247797 0.06342529 0.09520807 0.0046893284 0.09336681
-0.007948842 0.036311425 -0.06617357 0.0010483494 0.07413506 -0.040922765 -0.023324385 -0.012813332
-0.0029258102 -0.016576322 0.01647827 -0.02356856 0.034791574 -0.028469896 0.08131095 -0.017106004
0.05663264 -0.024085416 0.030291483 0.017163415 -0.013960855 0.13218658 -0.011097664 0.049326696
0.03680774 0.024706697 0.022218818 0.019315444 0.07904375 0.066623926 -0.081984796 -0.03725078
-0.014222682 0.09916496 -0.028037973 -0.04013116 0.04926875 0.10023037 -0.01028369 -0.008607889

MatMul i1 [256, 9] scale=0.011113001 zero_point=0
00000000: ee00 051b f11a 1b05 fcef e1d9 c306 38f8
00000010: 43fd 02ee 0e39 56ec 3555 24e9 490d 0a19
00000020: 1c1e 18fa 29ef 020a b804 daeb d9f7 0315
00000030: 2deb e0f5 07ed 243e 24d7 1410 e13c f4f8
00000040: efe5 2428 fb06 40f9 1e99 fafd 2bf9 2309
00000050: 220b f818 2fdd f90f f215 10ea 19ef d6cc
00000060: e905 d72a 51fe 3e1f e405 f716 ff19 f001
00000070: 2af2 1108 f6b5 2f01 f60c d618 e02a bf38
00000080: 1fec 0a06 27aa f8fd 1314 230f ebc0 0ff9
00000090: ede8 f8fa 0f10 fa09 e8e1 1fbe d817 ac1f
000000a0: fc0e 111f fcea 1333 1ef8 da57 ecf9 0616
000000b0: 1a07 55fd fc20 c6ea df1a f513 f9fe f4a6
000000c0: f230 eeec e2f3 d7ed 120d efe0 0c10 e913
000000d0: 2706 e6d5 de37 fadf cf2e 2b23 da2c ea16
000000e0: fe11 14e8 e9cd f7ee 092e 1f3b 210d 10f4
000000f0: e1f5 09cf fec3 d025 d231 160a 39f8 11e6
-0.20003402 0.0 0.055565007 0.30005103 -0.16669501 0.28893802 0.30005103 0.055565007
-0.044452004 -0.18892102 -0.34450305 -0.43340704 -0.67789304 0.066678 0.62232804 -0.08890401
0.7445711 -0.033339 0.022226002 -0.20003402 0.15558201 0.63344103 0.9557181 -0.22226003
0.5889891 0.9446051 0.40006804 -0.25559902 0.8112491 0.14446901 0.111130014 0.27782503
0.31116402 0.33339003 0.266712 -0.066678 0.45563304 -0.18892102 0.022226002 0.111130014
-0.8001361 0.044452004 -0.42229405 -0.23337302 -0.43340704 -0.10001701 0.033339 0.23337302
0.50008506 -0.23337302 -0.35561603 -0.12224301 0.077791005 -0.21114703 0.40006804 0.6890061
0.40006804 -0.45563304 0.22226003 0.17780802 -0.34450305 0.66678005 -0.133356 -0.08890401
-0.18892102 -0.30005103 0.40006804 0.44452006 -0.055565007 0.066678 0.71123207 -0.077791005
0.33339003 -1.1446391 -0.066678 -0.033339 0.47785905 -0.077791005 0.38895503 0.10001701
0.37784204 0.12224301 -0.08890401 0.266712 0.52231103 -0.38895503 -0.077791005 0.16669501
-0.15558201 0.23337302 0.17780802 -0.24448602 0.27782503 -0.18892102 -0.46674603 -0.57787603
-0.25559902 0.055565007 -0.45563304 0.46674603 0.9001531 -0.022226002 0.6890061 0.34450305
-0.31116402 0.055565007 -0.10001701 0.24448602 -0.011113001 0.27782503 -0.17780802 0.011113001
0.46674603 -0.15558201 0.18892102 0.08890401 -0.111130014 -0.83347505 0.52231103 0.011113001
-0.111130014 0.133356 -0.46674603 0.266712 -0.35561603 0.46674603 -0.72234505 0.62232804
0.34450305 -0.22226003 0.111130014 0.066678 0.43340704 -0.9557181 -0.08890401 -0.033339
0.21114703 0.22226003 0.38895503 0.16669501 -0.23337302 -0.71123207 0.16669501 -0.077791005
-0.21114703 -0.266712 -0.08890401 -0.066678 0.16669501 0.17780802 -0.066678 0.10001701
-0.266712 -0.34450305 0.34450305 -0.73345804 -0.44452006 0.25559902 -0.93349206 0.34450305
-0.044452004 0.15558201 0.18892102 0.34450305 -0.044452004 -0.24448602 0.21114703 0.56676304
0.33339003 -0.08890401 -0.42229405 0.9668311 -0.22226003 -0.077791005 0.066678 0.24448602
0.28893802 0.077791005 0.9446051 -0.033339 -0.044452004 0.35561603 -0.6445541 -0.24448602
-0.36672902 0.28893802 -0.12224301 0.21114703 -0.077791005 -0.022226002 -0.133356 -1.0001701
-0.15558201 0.533424 -0.20003402 -0.22226003 -0.33339003 -0.14446901 -0.45563304 -0.21114703
0.20003402 0.14446901 -0.18892102 -0.35561603 0.133356 0.17780802 -0.25559902 0.21114703
0.43340704 0.066678 -0.28893802 -0.47785905 -0.37784204 0.61121505 -0.066678 -0.36672902
-0.54453707 0.51119804 0.47785905 0.38895503 -0.42229405 0.48897204 -0.24448602 0.24448602
-0.022226002 0.18892102 0.22226003 -0.266712 -0.25559902 -0.56676304 -0.10001701 -0.20003402
0.10001701 0.51119804 0.34450305 0.65566707 0.36672902 0.14446901 0.17780802 -0.133356
-0.34450305 -0.12224301 0.10001701 -0.54453707 -0.022226002 -0.67789304 -0.533424 0.41118103
-0.51119804 0.54453707 0.24448602 0.111130014 0.63344103 -0.08890401 0.18892102 -0.28893802

MatMul_1 i1 [256, 256] scale=0.006059894 zero_point=0
00000000: 0bec eaf3 f313 e5ef ea0a fff9 05ee e215
00000010: 02fc fef0 fb11 0417 ecfc fef9 11f0 ec0d
00000020: d5de e004 fde8 e9f3 081c fae2 faf2 0412
00000030: edf2 f902 e6e5 fadf 00f4 f108 f302 0afe
00000040: 030f f000 02fa f8fa 1307 f8f2 dbf5 e511
00000050: f2e1 fcf0 ecfc 0bf3 f70c 130a ee11 e8f5
00000060: fbe7 05f8 ede9 fcfa 0505 f1ed f3df fdff
00000070: 12f2 f3dd f7ef f2fc f9f7 fcf2 f7fd 16fc
00000080: f5ea e3f1 fe09 eceb f7f8 00f9 f5e7 eaf1
00000090: 07f9 f5ed fde9 f207 fd15 f4fd ff01 ecf3
000000a0: 0bf1 11f4 f505 f20b fbff f9e7 0b0b ed0a
000000b0: ec01 02fc f419 f70b dd03 03f7 09fa f305
000000c0: f2ee f211 ef03 f609 fa00 07e6 e9ff 0015
000000d0: f000 0b01 0704 f2eb ebf8 f6ef f8f1 ebf7
000000e0: f101 f901 f806 f4f9 07e6 e707 05e5 f1f8
000000f0: f4f5 fa09 e500 0aee 00f2 06ff 10ff 0bf2
0.06665883 -0.12119788 -0.13331766 -0.07877862 -0.07877862 0.11513799 -0.16361713 -0.103018194
-0.13331766 0.06059894 -0.006059894 -0.04241926 0.03029947 -0.10907809 -0.18179682 0.12725776
0.012119788 -0.024239575 -0.012119788 -0.0969583 -0.03029947 0.103018194 0.024239575 0.13937756
-0.12119788 -0.024239575 -0.012119788 -0.04241926 0.103018194 -0.0969583 -0.12119788 0.07877862
-0.26057544 -0.20603639 -0.1939166 0.024239575 -0.018179681 -0.14543745 -0.13937756 -0.07877862
0.04847915 0.16967703 -0.036359362 -0.18179682 -0.036359362 -0.08483852 0.024239575 0.10907809
-0.11513799 -0.08483852 -0.04241926 0.012119788 -0.15755723 -0.16361713 -0.036359362 -0.1999765
0.0 -0.072718725 -0.09089841 0.04847915 -0.07877862 0.012119788 0.06059894 -0.012119788
0.018179681 0.09089841 -0.0969583 0.0 0.012119788 -0.036359362 -0.04847915 -0.036359362
0.11513799 0.04241926 -0.04847915 -0.08483852 -0.22421607 -0.06665883 -0.16361713 0.103018194
-0.08483852 -0.1878567 -0.024239575 -0.0969583 -0.12119788 -0.024239575 0.06665883 -0.07877862
-0.054539043 0.072718725 0.11513799 0.06059894 -0.10907809 0.103018194 -0.14543745 -0.06665883
-0.03029947 -0.15149735 0.03029947 -0.04847915 -0.11513799 -0.13937756 -0.024239575 -0.036359362
0.03029947 0.03029947 -0.09089841 -0.11513799 -0.07877862 -0.1999765 -0.018179681 -0.006059894
0.10907809 -0.08483852 -0.07877862 -0.21209629 -0.054539043 -0.103018194 -0.08483852 -0.024239575
-0.04241926 -0.054539043 -0.024239575 -0.08483852 -0.054539043 -0.018179681 0.13331766 -0.024239575
-0.06665883 -0.13331766 -0.17573692 -0.09089841 -0.012119788 0.054539043 -0.12119788 -0.12725776
-0.054539043 -0.04847915 0.0 -0.04241926 -0.06665883 -0.15149735 -0.13331766 -0.09089841
0.04241926 -0.04241926 -0.06665883 -0.11513799 -0.018179681 -0.13937756 -0.08483852 0.04241926
-0.018179681 0.12725776 -0.072718725 -0.018179681 -0.006059894 0.006059894 -0.12119788 -0.07877862
0.06665883 -0.09089841 0.103018194 -0.072718725 -0.06665883 0.03029947 -0.08483852 0.06665883
-0.03029947 -0.006059894 -0.04241926 -0.15149735 0.06665883 0.06665883 -0.11513799 0.06059894
-0.12119788 0.006059894 0.012119788 -0.024239575 -0.072718725 0.15149735 -0.054539043 0.06665883
-0.21209629 0.018179681 0.018179681 -0.054539043 0.054539043 -0.036359362 -0.07877862 0.03029947
-0.08483852 -0.10907809 -0.08483852 0.103018194 -0.103018194 0.018179681 -0.06059894 0.054539043
-0.036359362 0.0 0.04241926 -0.15755723 -0.13937756 -0.006059894 0.0 0.12725776
-0.0969583 0.0 0.06665883 0.006059894 0.04241926 0.024239575 -0.08483852 -0.12725776
-0.12725776 -0.04847915 -0.06059894 -0.103018194 -0.04847915 -0.09089841 -0.12725776 -0.054539043
-0.09089841 0.006059894 -0.04241926 0.006059894 -0.04847915 0.036359362 -0.072718725 -0.04241926
0.04241926 -0.15755723 -0.15149735 0.04241926 0.03029947 -0.16361713 -0.09089841 -0.04847915
-0.072718725 -0.06665883 -0.036359362 0.054539043 -0.16361713 0.0 0.06059894 -0.10907809
0.0 -0.08483852 0.036359362 -0.006059894 0.0969583 -0.006059894 0.06665883 -0.08483852
