TeamCode/src/main/assets/BODY.tflite (tflite, 9520 bytes, 7 tensors)

onnx_tf_prefix_/_continuous_distribution/Mul f4 [2, 128]
0.0 0.0 -0.0 -0.0 -0.0 0.0 -0.0 0.0
-0.0 0.0 -0.0 -0.0 0.0 -0.0 -0.0 0.0
-0.0 -0.0 -0.0 0.0 -0.0 0.0 0.0 -0.0
0.0 -0.0 0.0 0.0 0.0 0.0 -0.0 0.0
0.0 -0.0 0.0 -0.0 0.0 0.0 -0.0 0.0
-0.0 0.0 0.0 -0.0 0.0 0.0 -0.0 -0.0
-0.0 0.0 0.0 -0.0 -0.0 -0.0 -0.0 -0.0
-0.0 0.0 0.0 0.0 -0.0 -0.0 -0.0 -0.0
0.0 0.0 -0.0 -0.0 0.0 0.0 0.0 0.0
0.0 -0.0 -0.0 -0.0 -0.0 0.0 0.0 -0.0
0.0 -0.0 0.0 0.0 0.0 -0.0 -0.0 -0.0
-0.0 0.0 0.0 -0.0 0.0 -0.0 -0.0 0.0
0.0 0.0 -0.0 0.0 0.0 -0.0 0.0 -0.0
-0.0 -0.0 -0.0 0.0 0.0 0.0 0.0 0.0
0.0 -0.0 0.0 -0.0 -0.0 0.0 -0.0 0.0
-0.0 0.0 0.0 0.0 -0.0 -0.0 0.0 0.0
0.0 0.0 0.0 -0.0 0.0 0.0 0.0 0.0
-0.0 -0.0 -0.0 -0.0 -0.0 -0.0 -0.0 0.0
-0.0 -0.0 0.0 0.0 0.0 -0.0 -0.0 -0.0
-0.0 0.0 -0.0 0.0 -0.0 -0.0 -0.0 -0.0
0.0 0.0 0.0 -0.0 0.0 0.0 0.0 0.0
-0.0 -0.0 -0.0 0.0 -0.0 -0.0 0.0 -0.0
0.0 -0.0 -0.0 0.0 0.0 0.0 0.0 0.0
-0.0 0.0 0.0 0.0 -0.0 -0.0 0.0 0.0
-0.0 -0.0 -0.0 -0.0 -0.0 -0.0 0.0 0.0
-0.0 0.0 -0.0 -0.0 -0.0 -0.0 -0.0 -0.0
0.0 -0.0 0.0 -0.0 0.0 0.0 -0.0 -0.0
0.0 -0.0 0.0 0.0 -0.0 0.0 -0.0 0.0
-0.0 0.0 0.0 -0.0 -0.0 0.0 -0.0 -0.0
0.0 0.0 0.0 -0.0 -0.0 0.0 0.0 0.0
-0.0 -0.0 0.0 0.0 0.0 0.0 -0.0 0.0
-0.0 -0.0 0.0 -0.0 -0.0 -0.0 -0.0 0.0
00000000: 0000 0000 0000 0000 0000 0080 0000 0080
00000010: 0000 0080 0000 0000 0000 0080 0000 0000
00000020: 0000 0080 0000 0000 0000 0080 0000 0080
00000030: 0000 0000 0000 0080 0000 0080 0000 0000
00000040: 0000 0080 0000 0080 0000 0080 0000 0000
00000050: 0000 0080 0000 0000 0000 0000 0000 0080
00000060: 0000 0000 0000 0080 0000 0000 0000 0000
00000070: 0000 0000 0000 0000 0000 0080 0000 0000
00000080: 0000 0000 0000 0080 0000 0000 0000 0080
00000090: 0000 0000 0000 0000 0000 0080 0000 0000
000000a0: 0000 0080 0000 0000 0000 0000 0000 0080
000000b0: 0000 0000 0000 0000 0000 0080 0000 0080
000000c0: 0000 0080 0000 0000 0000 0000 0000 0080
000000d0: 0000 0080 0000 0080 0000 0080 0000 0080
000000e0: 0000 0080 0000 0000 0000 0000 0000 0000
000000f0: 0000 0080 0000 0080 0000 0080 0000 0080
00000100: 0000 0000 0000 0000 0000 0080 0000 0080
00000110: 0000 0000 0000 0000 0000 0000 0000 0000
00000120: 0000 0000 0000 0080 0000 0080 0000 0080
00000130: 0000 0080 0000 0000 0000 0000 0000 0080
00000140: 0000 0000 0000 0080 0000 0000 0000 0000
00000150: 0000 0000 0000 0080 0000 0080 0000 0080
00000160: 0000 0080 0000 0000 0000 0000 0000 0080
00000170: 0000 0000 0000 0080 0000 0080 0000 0000
00000180: 0000 0000 0000 0000 0000 0080 0000 0000
00000190: 0000 0000 0000 0080 0000 0000 0000 0080
000001a0: 0000 0080 0000 0080 0000 0080 0000 0000
000001b0: 0000 0000 0000 0000 0000 0000 0000 0000
000001c0: 0000 0000 0000 0080 0000 0000 0000 0080
000001d0: 0000 0080 0000 0000 0000 0080 0000 0000
000001e0: 0000 0080 0000 0000 0000 0000 0000 0000
000001f0: 0000 0080 0000 0080 0000 0000 0000 0000
00000200: 0000 0000 0000 0000 0000 0000 0000 0080
00000210: 0000 0000 0000 0000 0000 0000 0000 0000
00000220: 0000 0080 0000 0080 0000 0080 0000 0080
00000230: 0000 0080 0000 0080 0000 0080 0000 0000
00000240: 0000 0080 0000 0080 0000 0000 0000 0000
00000250: 0000 0000 0000 0080 0000 0080 0000 0080
00000260: 0000 0080 0000 0000 0000 0080 0000 0000
00000270: 0000 0080 0000 0080 0000 0080 0000 0080
00000280: 0000 0000 0000 0000 0000 0000 0000 0080
00000290: 0000 0000 0000 0000 0000 0000 0000 0000
000002a0: 0000 0080 0000 0080 0000 0080 0000 0000
000002b0: 0000 0080 0000 0080 0000 0000 0000 0080
000002c0: 0000 0000 0000 0080 0000 0080 0000 0000
000002d0: 0000 0000 0000 0000 0000 0000 0000 0000
000002e0: 0000 0080 0000 0000 0000 0000 0000 0000
000002f0: 0000 0080 0000 0080 0000 0000 0000 0000
00000300: 0000 0080 0000 0080 0000 0080 0000 0080
00000310: 0000 0080 0000 0080 0000 0000 0000 0000
00000320: 0000 0080 0000 0000 0000 0080 0000 0080
00000330: 0000 0080 0000 0080 0000 0080 0000 0080
00000340: 0000 0000 0000 0080 0000 0000 0000 0080
00000350: 0000 0000 0000 0000 0000 0080 0000 0080
00000360: 0000 0000 0000 0080 0000 0000 0000 0000
00000370: 0000 0080 0000 0000 0000 0080 0000 0000
00000380: 0000 0080 0000 0000 0000 0000 0000 0080
00000390: 0000 0080 0000 0000 0000 0080 0000 0080
000003a0: 0000 0000 0000 0000 0000 0000 0000 0080
000003b0: 0000 0080 0000 0000 0000 0000 0000 0000
000003c0: 0000 0080 0000 0080 0000 0000 0000 0000
000003d0: 0000 0000 0000 0000 0000 0080 0000 0000
000003e0: 0000 0080 0000 0080 0000 0000 0000 0080
000003f0: 0000 0080 0000 0080 0000 0080 0000 0000

onnx_tf_prefix_/_continuous_distribution/Mul1 f4 [2]
0.0 -0.0
00000000: 0000 0000 0000 0080

Const_4 f4 [1, 2]
-9.731171 -9.815438
00000000: e0b2 1bc1 090c 1dc1

Const_5 f4 [2]
0.056045 -0.47483236
00000000: 718f 653d 3a1d f3be

Const_7 f4 [128]
2.2568345 -2.2857974 2.6832712 -13.00398 -0.42508605 -6.1412826 -14.873262 -5.44662
-16.543634 -2.8009498 -1.9532689 -11.093348 -4.7340393 0.06815159 -0.9846771 0.2766197
-0.8660813 4.109282 -1.4733357 0.26217717 -7.6362805 -11.788165 0.711214 -4.3720264
-1.3959649 -11.784996 1.2668263 -10.832015 0.32777578 -12.983433 -14.198154 -6.590503
-7.9765882 -2.7536216 -8.096876 -5.7224774 0.57255703 -12.677009 -4.4666324 -14.9311285
-10.462655 1.0522717 1.0712485 0.85041517 -6.985282 -0.81420875 -6.4796414 -2.346927
-4.07006 -12.339972 -8.016372 3.0996716 1.0519291 -15.9155855 1.0074664 2.2978973
-15.783941 -12.741341 -5.696818 0.14830355 -4.121456 -10.787244 1.7599596 4.349742
-12.675898 -1.7434015 -9.527023 -3.1912272 -9.94254 -7.1017947 -14.887975 -9.356548
-16.886858 -12.362731 -4.0791903 -12.673384 -4.9371715 -10.472569 -2.3745785 -1.0420662
-0.9028007 -2.7634633 -11.290534 -4.5213475 -1.4578817 -2.8558261 -1.4606664 -7.4476576
-12.742998 -2.4134963 -11.052319 -2.695228 1.8624538 -15.882961 -6.0031853 -11.42704
-0.50777316 -6.9323487 -7.9416304 -6.1774926 -4.1671147 -6.6175714 -4.817832 -0.19055545
0.28794986 1.8717141 -5.6325574 -3.3685136 -1.8675296 0.12682535 -8.541755 5.7908125
-2.3390832 -8.685984 -2.0018957 0.845902 -3.6196258 1.3622621 -3.8960412 -7.619456
-2.671221 -7.056123 -14.536371 -16.35784 -12.779807 -1.5893815 -2.7262647 1.5356094
00000000: fa6f 1040 814a 12c0 b7ba 2b40 4d10 50c1
00000010: e1a4 d9be 6385 c4c0 e2f8 6dc1 b64a aec0
00000020: 5d59 84c1 c342 33c0 b704 fabf 5a7e 31c1
00000030: 407d 97c0 1093 8b3d cc13 7cbf 19a1 8d3e
00000040: 81b7 5dbf 3d7f 8340 4496 bcbf 163c 863e
00000050: 695c f4c0 539c 3cc1 1f12 363f a4e7 8bc0
00000060: faae b2bf 588f 3cc1 5d27 a23f ef4f 2dc1
00000070: 3ad2 a73e 24bc 4fc1 a42b 63c1 67e5 d2c0
00000080: 3640 ffc0 563b 30c0 ce8c 01c1 891e b7c0
00000090: 1993 123f 07d5 4ac1 a7ee 8ec0 e7e5 6ec1
000000a0: 0967 27c1 d7b0 863f ac1e 893f cfb4 593f
000000b0: 6e87 dfc0 fc6f 50bf 3959 cfc0 0d34 16c0
000000c0: ee3d 82c0 8670 45c1 0f43 00c1 0561 4640
000000d0: 9da5 863f 3da6 7ec1 a9f4 803f c010 1340
000000e0: 068b 7cc1 88dc 4bc1 554c b6c0 e3dc 173e
000000f0: f8e2 83c0 8d98 2cc1 5b46 e13f 1631 8b40
00000100: 7ad0 4ac1 c827 dfbf b06e 18c1 113d 4cc0
00000110: a514 1fc1 e741 e3c0 2535 6ec1 6cb4 15c1
00000120: 4918 87c1 bfcd 45c1 ba88 82c0 2ec6 4ac1
00000130: 4ffd 9dc0 a58f 27c1 18f9 17c0 6d62 85bf
00000140: f21d 67bf 95dc 30c0 07a6 34c1 e1ae 90c0
00000150: de9b babf dbc5 36c0 1ef7 babf 3653 eec0
00000160: 52e3 4bc1 b976 1ac0 4cd6 30c1 9e7e 2cc0
00000170: e364 ee3f 9c20 7ec1 181a c0c0 28d5 36c1
00000180: 6cfd 01bf cdd5 ddc0 d621 fec0 05ae c5c0
00000190: 0159 85c0 25c3 d3c0 ae2b 9ac0 f820 43be
000001a0: 2a6e 933e 5494 ef3f e93d b4c0 ba95 57c0
000001b0: 360b efbf 81de 013e 07ab 08c1 564e b940
000001c0: 8ab3 15c0 caf9 0ac1 0f1f 00c0 098d 583f
000001d0: f3a7 67c0 9b5e ae3f bd58 79c0 95d2 f3c0
000001e0: 49f5 2ac0 c2cb e1c0 fa94 68c1 dbdc 82c1
000001f0: 177a 4cc1 da70 cbbf 1f7b 2ec0 d98e c43f

MatMul f4 [128, 4]
0.039325655 -0.04921476 0.012295115 -0.011080377 -0.052491862 -0.002862528 -0.01813694 0.019043421
-0.027387716 -0.035909116 0.026343632 0.054858766 0.026142228 -0.00096622016 0.011612313 -0.007822937
-0.010427096 0.038303196 0.020818582 0.029916363 0.087189816 0.011224624 -0.08233036 -0.0008622315
0.0031973217 0.0042865355 -0.0046986975 0.0149052255 -0.051277515 -0.011928763 0.01814749 0.0013040284
0.00053341273 0.00040801617 0.00057659985 0.00032540064 0.019782018 0.046270687 -0.005353896 -0.049717326
-0.020594908 -0.032831885 -0.029293666 0.005337368 -0.02362897 0.018668175 -0.0042034984 0.006644247
0.045556393 -0.03600949 -0.055189464 0.04104385 0.069497004 -0.0032516164 -0.14761384 -0.009195515
0.006227046 0.06958038 -0.028044183 0.033358008 0.010909651 0.026873684 0.04270129 -0.0034079251
0.049654532 -0.031347107 0.030993173 0.012675968 0.0195861 0.01380529 0.016618937 -0.030630732
0.0046748524 0.06941243 -0.04178112 0.0546883 -0.027362978 0.061260447 0.0167129 -0.035266005
0.007200966 0.051514473 0.022957128 0.0064708344 -0.013283699 0.023924531 0.024706818 -0.018708048
-0.00049765804 -0.017792316 0.053923935 -0.011113053 -0.017915241 0.040937744 -0.022665676 0.051502407
-0.059758864 0.03625207 0.040087026 0.015536501 -0.0306196 -0.011434466 0.0108569125 -0.0011944828
-0.014546367 0.010462441 -0.0044835904 -0.06777457 0.023173353 0.02265144 -0.022069555 0.0010591726
-0.021953596 0.022347808 0.00091950473 0.035413012 0.0068577966 -0.03333583 -0.015917009 0.002095172
0.0047305725 -0.03022381 0.0008457252 0.0039980146 0.012091163 0.02535253 -0.022294829 0.03861282
0.0515066 -0.00956529 -0.008304644 0.033598136 0.036995962 -0.054423742 0.01911896 0.011570792
0.018098239 -0.03589832 0.035780963 -0.00958992 0.026980137 -0.029539473 0.027961083 -0.021141257
0.03482268 0.036219243 -0.0066072526 -0.0017798141 0.028845955 0.0045510586 -0.0014155641 -0.00947054
-0.038801786 0.035462577 0.019084843 -0.044630144 -0.001492922 0.009430475 -0.00912162 -0.020213839
0.007998551 0.026071897 0.00787447 -0.015984992 0.072736196 -0.0113021415 -0.028520256 0.023224559
0.05239582 -0.052674823 0.026407342 0.010237606 -0.006513516 0.033840284 -0.011796098 -0.07552768
0.01959451 -0.05546868 -0.025388971 0.05925805 -0.00032698564 -0.06596129 -0.016593494 -0.018756451
-0.0686657 -0.020082233 0.050088853 0.009583012 0.002546037 -0.006241085 -0.018285748 -0.037706353
-0.061802257 0.022268146 0.018246746 0.020045996 -0.021162583 0.018404735 0.020570524 0.009046469
0.052918058 0.0360656 -0.02152129 -0.005335722 0.03223384 0.022309227 -0.004225133 0.022899846
-0.0005484688 -0.04252391 0.024832668 -0.006090333 0.004644926 0.014420348 0.0005428005 0.023918008
-0.027053826 0.019623302 -0.006135314 -0.038380884 -0.0043810164 -0.0715803 -0.007244188 0.047446866
0.0007722122 0.0005148532 0.00038254505 0.0003583791 -0.01736523 -0.0023444665 0.031165618 -0.01411216
0.068206035 0.01626139 -0.07217547 -0.025499072 0.001582212 -0.016509853 -0.050426025 0.048721425
-0.052234482 -0.009114578 0.066731796 0.011579152 -0.027623069 0.01183617 0.02828759 -0.008440962
0.0136407325 0.0481316 -0.0016797713 -0.017250117 0.004669882 -0.04996525 0.009359464 -0.031884708
00000000: f013 213d 6b95 49bd 7371 493c 788a 35bc
00000010: b501 57bd 4099 3bbb ec93 94bc f300 9c3c
00000020: 345c e0bc 7015 13bd 9ace d73c 96b3 603d
00000030: 3a28 d63c f049 7dba 9241 3e3c c72b 00bc
00000040: 69d6 2abc d0e3 1c3d bb8b aa3c 2913 f53c
00000050: 9390 b23d 7ce7 373c d29c a8bd 6007 62ba
00000060: 288a 513b 1176 8c3b 88f7 99bb 0c35 743c
00000070: 5f08 52bd dc70 43bc 0caa 943c efeb aa3a
00000080: b9d4 0b3a 01eb d539 f626 173a 899a aa39
00000090: e60d a23c 5586 3d3d bc6f afbb 65a4 4bbd
000000a0: a7b6 a8bc ba7a 06bd 45f9 efbc 17e5 ae3b
000000b0: 8b91 c1bc 00ee 983c 80bd 89bb fcb7 d93b
000000c0: 5799 3a3d b07e 13bd 590e 62bd 991d 283d
000000d0: 7254 8e3d 1219 55bb 1528 17be c9a8 16bc
000000e0: 3f0c cc3b 2980 8e3d eabc e5bc 68a2 083d
000000f0: 65be 323c 3326 dc3c 8ce7 2e3d 7f57 5fbb
00000100: 8d62 4b3d d365 00bd 65e5 fd3c ddae 4f3c
00000110: 0773 a03c 952f 623c 7024 883c 4ded fabc
00000120: 812f 993b 1b28 8e3d ae22 2bbd d700 603d
00000130: 5328 e0bc 3cec 7a3d 7ee9 883c 1673 10bd
00000140: 15f6 eb3b d700 533d 9610 bc3c 4b09 d43b
00000150: dfa3 59bc 61fd c33c f465 ca3c 9f41 99bc
00000160: 4475 02ba 31c1 91bc 58df 5c3d 8613 36bc
00000170: fcc2 92bc 56ae 273d 5ead b9bc 30f4 523d
00000180: b6c5 74bd 0d7d 143d 4b32 243d cf8c 7e3c
00000190: f5d5 fabc a057 3bbc 31e1 313c 3190 9cba
000001a0: e353 6ebc a86a 2b3c 15eb 92bb 65cd 8abd
000001b0: 0bd6 bd3c 838f b93c 36cb b4bc efd3 8a3a
000001c0: 07d8 b3bc c012 b73c eb0a 713a 3c0d 113d
000001d0: 5eb7 e03b 278b 08bd 6364 82bc 274f 093b
000001e0: eb02 9b3b ec97 f7bc a8b3 5d3a c701 833b
000001f0: 031a 463c 1cb0 cf3c a5a3 b6bc 7a28 1e3d
00000200: 96f8 523d bcb7 1cbc 3410 08bc 339e 093d
00000210: 1489 173d 6eeb 5ebd 5d9f 9c3c 6b93 3d3c
00000220: c242 943c 1e0a 13bd 0f8f 123d 0a1f 1dbc
00000230: 7305 dd3c c4fc f1bc a40e e53c 6e30 adbc
00000240: 3aa2 0e3d a15a 143d a781 d8bb a748 e9ba
00000250: 5a4e ec3c 0c21 953b 738a b9ba 532a 1bbc
00000260: 9fee 1ebd 3541 113d d157 9c3c 19ce 36bd
00000270: 26ae c3ba 4782 1a3c d972 15bc 7e97 a5bc
00000280: 5b0c 033c bb94 d53c ec03 013c f5f2 82bc
00000290: b7f6 943d 9e2c 39bc 50a3 e9bc 6e41 be3c
000002a0: 009d 563d 8ec1 57bd 3654 d83c a2bb 273c
000002b0: 556f d5bb 1c9c 0a3d 6c44 41bc 42ae 9abd
000002c0: aa84 a03c 2033 63bd 88fc cfbc 92b8 723d
000002d0: 456f abb9 b616 87bd 14ef 87bc 21a7 99bc
000002e0: 9aa0 8cbd 7f83 a4bc f829 4d3d 1102 1d3c
000002f0: 6adb 263b 0482 ccbb fecb 95bc fa71 1abd
00000300: 5d24 7dbd b06b b63c 337a 953c 8037 a43c
00000310: 275d adbc 87c5 963c 8483 a83c a437 143c
00000320: 9bc0 583d 86b9 133d 6b4d b0bc 48d7 aebb
00000330: a207 043d d7c1 b63c fc72 8abb 7598 bb3c
00000340: 1ec7 0fba 8d2d 2ebd e16d cb3c 6b91 c7bb
00000350: 7734 983b 5343 6c3c ba4a 0e3a b3ef c33c
00000360: fc9f ddbc 0cc1 a03c be0a c9bb 4635 1dbd
00000370: a18e 8fbb b198 92bd a760 edbb a557 423d
00000380: 496e 4a3a 37f7 063a 5490 c839 d4e4 bb39
00000390: 8741 8ebc 9fa5 19bb 0a4f ff3c b036 67bc
000003a0: 9baf 8b3d 9b36 853c bcd0 93bd 6ee3 d0bc
000003b0: 3a62 cf3a ac3f 87bc 858b 4ebd 1e90 473d
000003c0: d3f3 55bd 5055 15bc aeaa 883d 7cb6 3d3c
000003d0: c649 e2bc 7fec 413c 60bb e73c f64b 0abc
000003e0: 617d 5f3c a425 453d c62b dcba 1e50 8dbc
000003f0: cf05 993b 5da8 4cbd 7058 193c 8a99 02bd

MatMul_1 f4 [2, 128]
0.016161798 0.014587482 -0.02740374 -0.10339515 -0.0113105485 0.03978501 -0.6561791 0.019152526
-1.7805727e-05 0.029632773 -0.020437082 -0.08404638 0.030247837 -0.045623716 -0.006001649 0.015313312
-0.029292759 -0.025523646 -0.005566138 0.023660038 -0.0075535933 0.008950028 0.018236699 -0.039665814
0.03584871 -0.06841146 0.034057267 0.056465063 0.01871093 0.01486186 -0.027800264 0.008481469
0.02800776 -0.016374173 0.053000405 -0.044781424 0.024973089 0.07142757 -0.025056161 0.04365869
-0.030156018 0.0060673957 0.026067507 -0.041624315 0.025510393 0.01493176 -0.033635728 -0.023632927
-0.029020991 0.039571635 0.020585155 -0.018634828 -0.014677077 -0.09777585 -0.021364404 -0.0014094668
-5.1668987e-05 0.04774729 0.016846664 0.008287005 -0.04250434 -0.053388268 -0.00825744 -0.010645059
0.041506916 0.019766916 -0.013479516 -0.026367882 0.04870079 0.033615384 0.09865883 0.06874448
1.3956212 -0.061104182 -0.017147806 -0.054710962 -0.015839748 0.028245874 0.0043039634 -0.033194203
0.044644576 -0.019582719 0.024406036 0.03302428 0.009969857 -0.010973189 -0.016918289 -0.020593017
-0.04893884 0.027993709 0.007065952 -0.031582043 0.042229608 -0.023820536 -0.036259588 0.011744372
0.016671225 0.024576671 -0.023364687 0.028965196 0.034654647 -0.013200565 0.0024902255 -0.034258414
-0.044043805 -0.040092297 -0.03282223 0.006844486 0.0020140486 0.012813234 0.008745987 0.052027088
0.041840725 -0.0013794518 0.012098551 -0.03279181 -0.039373297 0.033622675 -0.04036518 0.014258105
-0.011885904 0.04031598 0.052133907 0.0061619454 -0.00021866662 -0.034777537 0.021417744 0.039355658
0.023692997 0.029564723 0.017760474 -0.014151756 0.026613861 0.029610729 2.885787 0.018434238
-3.7534213e-05 -0.010605279 -0.0027176302 -0.025450813 -0.008443761 -0.04902723 -0.042088125 0.020019868
-0.017078679 -0.0061445585 0.04544995 0.016595665 0.027720535 -0.05923181 -0.0329126 -0.005256264
-0.021564174 0.019942736 -0.0005333728 0.002633365 -0.024319263 -0.021706613 -0.054435175 -0.03706906
0.0025238018 0.043590367 0.0023432318 -0.022614438 0.012629951 0.06156344 0.0011141981 0.129403
-0.03174265 -0.026772024 -0.017815322 0.018368158 -0.026736636 -0.023460321 0.02803326 -0.0012393611
0.005347755 -0.059445884 -0.02192905 0.030765023 0.020247668 0.013129776 0.021793526 0.039878298
-7.3804214e-05 0.019994905 0.041692846 0.037739187 -0.00048035636 -0.04262845 0.023748633 0.039241407
-0.014745272 -0.009571072 -0.03681398 -0.01538413 -0.01882623 -0.013910584 0.033673648 0.00017744693
-0.71498084 0.012658237 -0.043251693 -0.02213815 -0.042913835 -0.023613892 -0.036628276 -0.007493497
0.05904097 -0.0074802493 0.03580357 -0.00018665515 0.058146033 0.024046624 -0.030237207 -0.017458027
0.03528678 -0.0030630275 0.04892412 0.004488427 -0.0104114795 0.084520325 -0.018769227 0.09283553
-0.043482397 0.0067714765 0.059447512 -0.008707714 -0.018999105 0.04458672 -0.041715898 -0.01981065
0.0027120544 0.0036180518 0.027961204 -0.029635213 -0.026183771 0.031699743 0.03530084 0.0007698783
-0.001295085 -0.026450185 0.025913097 0.01742243 0.0267256 0.0032941396 -0.0063562756 0.060695715
-0.03897339 -0.010532056 0.020896146 -0.011580677 -0.0439914 -0.02312636 -0.0243893 0.010178028
00000000: bf65 843c 5600 6f3c cf7d e0bc d6c0 d3bd
00000010: e14f 39bc 9bf5 223d 5afb 27bf c2e5 9c3c
00000020: 825d 95b7 6ec0 f23c ab6b a7bc 8220 acbd
00000030: 50ca f73c efdf 3abd 7ba9 c4bb b0e4 7a3c
00000040: 5ef7 efbc f716 d1bc 2664 b6bb b2d2 c13c
00000050: 2284 f7bb 23a3 123c 2165 953c 9f78 22bd
00000060: 19d6 123d 4f1b 8cbd a27f 0b3d e947 673d
00000070: aa47 993c 297f 733c 61bd e3bc dcf5 0a3c
00000080: 8870 e53c 2123 86bc f416 593d ba6c 37bd
00000090: 5d94 cc3c 9e48 923d 9442 cdbc 74d3 323d
000000a0: c109 f7bc 01d1 c63b 868b d53c 427e 2abd
000000b0: 2cfb d03c 57a4 743c 9ec5 09bd d799 c1bc
000000c0: 6ebd edbc de15 223d 33a2 a83c 11a8 98bc
000000d0: 1f78 70bc b43e c8bd 6704 afbc dcbd b8ba
000000e0: 27b7 58b8 aa92 433d 0402 8a3c 38c6 073c
000000f0: 0819 2ebd a8ad 5abd 374a 07bc 9d68 2ebc
00000100: 2803 2a3d 3aee a13c 30d9 5cbc 7501 d8bc
00000110: 7b7a 473d 49b0 093d a40d ca3d e8c9 8c3d
00000120: b7a3 b23f 6148 7abd 8e79 8cbc 9a18 60bd
00000130: 5cc2 81bc e463 e73c 4308 8d3b a5f6 07bd
00000140: 3bdd 363d f06b a0bc 2bef c73c 7844 073d
00000150: 9c58 233c e4c8 33bc 3998 8abc b0b2 a8bc
00000160: 1874 48bd 1053 e53c 8089 e73b 2c5c 01bd
00000170: f4f8 2c3d 4923 c3bc ef84 14bd 776b 403c
00000180: 1892 883c 0455 c93c 4d67 bfbc 6b48 ed3c
00000190: 08f2 0d3d 2f47 58bc 0d33 233b 8d52 0cbd
000001a0: 4767 34bd d237 24bd 9a70 06bd b647 e03b
000001b0: 21fe 033b 99ee 513c 544b 0f3c 5b1a 553d
000001c0: 2e61 2b3d b9ce b4ba 0039 463c b450 06bd
000001d0: e545 21bd eeb7 093d f555 25bd d49a 693c
000001e0: 18bd 42bc 5e22 253d 5d8a 553d 25ea c93b
000001f0: e049 65b9 e472 0ebd 4474 af3c 6633 213d
00000200: d117 c23c b831 f23c 6a7e 913c c4dc 67bc
00000210: 5005 da3c 3392 f23c bcb0 3840 6603 973c
00000220: 0e6e 1db8 c4c1 2dbc 451a 32bb 397e d0bc
00000230: b357 0abc c7d0 48bd 9964 2cbd b500 a43c
00000240: 96e8 8bbc 4b58 c9bb ba29 3a3d a2f3 873c
00000250: 2d16 e33c 0e9d 72bd 5dcf 06bd bd3c acbb
00000260: 5aa7 b0bc f35e a33c 0bd2 0bba 8994 2c3b
00000270: 3139 c7bc 11d2 b1bc 6bf7 5ebd bad5 17bd
00000280: 5e66 253b d08b 323d e890 193b ea41 b9bc
00000290: dbed 4e3c f229 7c3d 490a 923a 3882 043e
000002a0: 9504 02bd 0151 dbbc 70f1 91bc d278 963c
000002b0: ca06 dbbc dc2f c0bc 02a6 e53c 0f72 a2ba
000002c0: 383c af3b 877d 73bd 8da4 b3bc ee06 fc3c
000002d0: 70de a53c 461e 573c 5688 b23c 6d57 233d
000002e0: 56c7 9ab8 5bcc a33c 1ec6 2a3d 6894 1a3d
000002f0: 57d8 fbb9 2b9b 2ebd 7e8c c23c 99bb 203d
00000300: 2796 71bc fccf 1cbc 42ca 16bd b80d 7cbc
00000310: 7739 9abc 38e9 63bc 61ed 093d 0c11 3a39
00000320: fc08 37bf 7e64 4f3c b028 31bd 115b b5bc
00000330: 6bc6 2fbd ec71 c1bc 8807 16bd 028c f5bb
00000340: f2d4 713d e11c f5bb c4a6 123d dcb8 43b9
00000350: 892a 6e3d 6dfd c43c 05b4 f7bc 2304 8fbc
00000360: df88 103d 13bd 48bb a864 483d a813 933b
00000370: e994 2abc fe18 ad3d ecc1 99bc 8e20 be3d
00000380: 991a 32bd 43e3 dd3b 3c7f 733d cdaa 0ebc
00000390: 03a4 9bbc 91a0 363d 4ade 2abd f249 a2bc
000003a0: b9bc 313b d61c 6d3b e50e e53c 8cc5 f2bc
000003b0: 597f d6bc 97d7 013d 9d97 103d a8d1 493a
000003c0: d7bf a9ba 0fae d8bc b447 d43c 7cb9 8e3c
000003d0: a5ef da3c 7ee2 573b 4e48 d0bb 129c 783d
000003e0: 90a2 1fbd a58e 2cbc 652e ab3c e1bc 3dbc
000003f0: 5430 34bd 7e73 bdbc 12cc c7bc bec1 263c
