TeamCode/src/main/assets/BODY.tflite (tflite, 84624 bytes, 14 tensors)

MatMul_2 f4 [2, 256]
-0.0026078487 0.04565156 -0.011024388 -0.02712439 -0.058017362 0.016346714 0.0037928484 0.03841006
0.00031749823 -0.013905917 -0.08353984 0.057439964 -0.0025345336 0.00019255845 -0.048808355 0.0045541995
-0.0015287683 -0.026841339 0.006459169 -0.10313733 -0.0030199336 -0.0134314485 -0.18131201 -0.007953018
-0.09409575 -0.0069186706 -0.0024270245 0.050717562 -0.022746041 -0.06369179 0.029984428 -0.041365158
0.009237998 -0.08869951 0.043907892 0.05391884 0.09438095 -0.00061428384 -0.0057273274 -0.0025304346
-0.00021130245 -0.005653548 -0.1590148 -0.13868214 -0.0041512186 -0.082311295 -0.0011466077 -0.00023406005
0.001062456 -0.045822494 -0.0014728644 -0.004737357 0.11115763 -0.036434975 -0.0008158867 -0.00011498265
0.024288923 -0.0042256746 -0.08546572 -0.0031522915 0.009925331 -0.0021214418 0.011583666 -0.0014747349
0.06020541 -0.0059480574 -0.00016036195 0.0006325244 0.10924263 0.015150792 -0.005603371 -0.0027985037
-0.0016685314 -0.0020361235 -0.06818804 -0.0002174451 0.02458126 -0.001723245 -0.038984545 -0.005085899
0.124376036 -0.005956643 -0.0067722606 0.034797564 0.049981136 -0.009895742 -0.018472582 0.030681914
0.050662998 0.06081211 0.16932772 0.19399135 -0.013039068 -0.0029554504 -0.11249562 0.14630537
0.02665047 -0.0003294559 0.026760738 -0.0018431202 -0.006596161 0.03814663 -0.0030965807 -0.0014745833
-0.009219695 0.00095402834 -0.07306333 0.0012794267 0.013690632 -0.0046086297 -0.24949445 -0.05121143
-0.002413215 -0.0035334441 -0.0074845925 0.07395791 -0.113061614 0.0014317448 -0.0032548397 -0.007526045
-0.008588527 -0.03299518 -0.0049718125 0.06034722 -0.079503074 -0.0064792656 0.08336508 0.0033992461
-0.015742324 -0.0026006275 0.16946866 -0.09334823 0.048019912 0.0012980249 0.085791096 0.23360008
0.0002294122 -0.0024554664 0.00020436732 -0.0031950376 -0.00071300904 0.021346468 0.35667244 -0.0028505845
0.054051165 0.047797304 0.052165505 0.075067304 -0.0045465184 0.00049317745 -0.0020397818 0.061599277
0.051980637 -0.003567583 0.020056821 0.0027431569 -0.026590148 -0.0014442654 0.02134639 0.00061651884
-0.0031453355 -0.00082636846 -0.019973312 0.028368589 -0.007356633 0.023933673 0.020353822 -0.00160852
-0.044955917 -0.0033585425 -0.0075555495 -0.043117817 -0.0058434084 0.003867541 0.008416677 -0.0031299342
0.031119477 -0.017113373 0.002256688 0.124918774 0.00034076214 -0.04726394 -0.09504343 0.00038932776
-0.26528084 -0.072450556 -0.002928991 0.0012370909 -0.0013607121 0.27479905 0.06512718 0.18169738
-0.011244837 -0.026037008 0.0074414373 -0.0012669999 -0.0014119402 -0.00566393 -0.023313953 -0.28576007
0.00072002475 0.08326958 0.019982873 -0.03040264 -0.0007943903 -0.08658824 -0.012832689 -0.0023414644
0.025511041 -0.12699349 0.004952599 -0.01033349 -0.0026246984 -0.06991571 -0.003951037 0.0022200856
-0.0010908294 -0.0106707 -0.025465883 -0.06200083 -0.00022423004 0.028491022 -0.0044807107 0.00025254226
0.025398294 0.073123276 0.12171969 -0.0068922397 -0.0015003654 -0.003974038 -0.0027829213 -0.00058097765
0.0765017 0.027538383 0.014075846 -0.0042283866 -0.0033887275 0.03787427 0.036880866 -0.0020349957
0.05649282 -0.0037832928 -0.0012544101 -0.00296785 0.24736431 -0.058409594 0.012659142 -0.0039651436
-0.0046120067 0.073740505 -0.006219551 0.07592901 -0.16539316 0.022669835 0.005131989 0.028551724
00000000: 71e8 2abb 21fd 3a3d a29f 34bc f833 debc
00000010: 9da3 6dbd 8be9 853c 7091 783b de53 1d3d
00000020: e475 a639 a5d5 63bc f016 abbd 2b46 6b3d
00000030: 6b1a 26bb 84e9 4939 45eb 47bd 653b 953b
00000040: f460 c8ba 5ee2 dbbc 70a7 d33b aa39 d3bd
00000050: 14ea 45bb 940f 5cbc dba9 39be 604d 02bc
00000060: 46b5 c0bd 04b6 e2bb b70e 1fbb 38bd 4f3d
00000070: e855 babc d770 82bd e7a1 f53c 836e 29bd
00000080: f95a 173c 17a8 b5bd c3d8 333d 00da 5c3d
00000090: cd4a c13d e407 21ba 4eac bbbb a6d5 25bb
000000a0: 1291 5db9 6641 b9bb c7d4 22be b102 0ebe
000000b0: f206 88bb d392 a8bd c549 96ba 046e 75b9
000000c0: 1c42 8b3a 5eb0 3bbd 210d c1ba d53b 9bbb
000000d0: 9da6 e33d d73c 15bd 3be1 55ba d722 f1b8
000000e0: 90f9 c63c 8777 8abb a708 afbd ad96 4ebb
000000f0: db9d 223c e307 0bbb 6bc9 3d3c e44b c1ba
00000100: f399 763d ece7 c2bb d526 28b9 fecf 253a
00000110: 9aba df3d 073b 783c 7c9c b7bb 1a67 37bb
00000120: a0b2 daba 7c70 05bb 2ca6 8bbd f901 64b9
00000130: a35e c93c 82de e1ba 42ae 1fbd 9da7 a6bb
00000140: ddb8 fe3d f12f c3bb d7e9 ddbb e487 0e3d
00000150: 05b9 4c3d c021 22bc d053 97bc a358 fb3c
00000160: 0184 4f3d 1e16 793d 3f64 2d3e aba5 463e
00000170: d1a1 55bc 3bb0 41bb 1b64 e6bd 13d1 153e
00000180: 1652 da3c d3ba acb9 5639 db3c da94 f1ba
00000190: 9c24 d8bb a43f 1c3d 01f0 4abb ce46 c1ba
000001a0: 340e 17bc c217 7a3a 3aa2 95bd 70b2 a73a
000001b0: ac4e 603c fd03 97bb 797b 7fbe 14c3 51bd
000001c0: 0827 1ebb 5b91 67bb 5041 f5bb 3f77 973d
000001d0: d98c e7bd 62a9 bb3a 264f 55bb 0b9d f6bb
000001e0: e5b6 0cbc f425 07bd 96ea a2bb a62e 773d
000001f0: 82d2 a2bd 0550 d4bb 50bb aa3d e3c5 5e3b
00000200: 0cf6 80bc 4a6f 2abb 3189 2d3e 5b2d bfbd
00000210: 87b0 443d 7d22 aa3a 3eb3 af3d dc34 6f3e
00000220: 5e8e 7039 e4eb 20bb 6f4b 5639 d663 51bb
00000230: 3ae9 3aba cade ae3c c59d b63e dfd0 3abb
00000240: c164 5d3d 1bc7 433d 7fab 553d e3bc 993d
00000250: f6fa 94bb 9448 013a dcad 05bb 864f 7c3d
00000260: a6e9 543d 1cce 69bb 344e a43c 89c6 333b
00000270: 95d3 d9bc 814d bdba a0de ae3c e19d 213a
00000280: f921 4ebb a6a0 58ba 129f a3bc 3e65 e83c
00000290: e90f f1bb 8d10 c43c 0fbd a63c fad4 d2ba
000002a0: b223 38bd fe1a 5cbb 8b94 f7bb 4f9c 30bd
000002b0: 107a bfbb 9276 7d3b 1ae6 093c 951f 4dbb
000002c0: 46ee fe3c 5831 8cbc f1e4 133b 6ad5 ff3d
000002d0: 52a8 b239 d597 41bd 21a6 c2bd b01e cc39
000002e0: e4d2 87be f560 94bd 51f4 3fbb e225 a23a
000002f0: ec59 b2ba 76b2 8c3e 6661 853d e10e 3a3e
00000300: 443c 38bc 904b d5bc 4dd7 f33b 7611 a6ba
00000310: da10 b9ba 7d98 b9bb e7fc bebc 254f 92be
00000320: 0bc0 3c3a 3e89 aa3d 1fb3 a33c f50e f9bc
00000330: a13e 50ba 2d55 b1bd 3340 52bc 4173 19bb
00000340: 88fc d03c 950a 02be 6949 a23b cc4d 29bc
00000350: 2203 2cbb f82f 8fbd b377 81bb db7e 113b
00000360: 29fa 8eba 29d4 2ebc d49d d0bc 95f4 7dbd
00000370: 4b1f 6bb9 0166 e93c edd2 92bb a667 8439
00000380: 1510 d03c a8c1 953d 2c48 f93d 4cd8 e1bb
00000390: e9a7 c4ba a638 82bb ac61 36bb c04c 18ba
000003a0: ecac 9c3d 2d98 e13c 619e 663c 478e 8abb
000003b0: 6a15 5ebb 0d22 1b3d 6410 173d 905d 05bb
000003c0: 0465 673d 1ff1 77bb 056b a4ba 4380 42bb
000003d0: 124d 7d3e e63e 6fbd 4a68 4f3c 09ee 81bb
000003e0: 5120 97bb 4305 973d 60cd cbbb ab80 9b3d
000003f0: d35c 29be 17b6 b93c 3e2a a83b 4ee5 e93c

onnx_tf_prefix_/_continuous_distribution/Mul f4 [2, 256]
-0.0 0.0 -0.0 -0.0 -0.0 0.0 0.0 0.0
0.0 -0.0 -0.0 0.0 -0.0 0.0 -0.0 0.0
-0.0 -0.0 0.0 -0.0 -0.0 -0.0 -0.0 -0.0
-0.0 -0.0 -0.0 0.0 -0.0 -0.0 0.0 -0.0
0.0 -0.0 0.0 0.0 0.0 -0.0 -0.0 -0.0
-0.0 -0.0 -0.0 -0.0 -0.0 -0.0 -0.0 -0.0
0.0 -0.0 -0.0 -0.0 0.0 -0.0 -0.0 -0.0
0.0 -0.0 -0.0 -0.0 0.0 -0.0 0.0 -0.0
0.0 -0.0 -0.0 0.0 0.0 0.0 -0.0 -0.0
-0.0 -0.0 -0.0 -0.0 0.0 -0.0 -0.0 -0.0
0.0 -0.0 -0.0 0.0 0.0 -0.0 -0.0 0.0
0.0 0.0 0.0 0.0 -0.0 -0.0 -0.0 0.0
0.0 -0.0 0.0 -0.0 -0.0 0.0 -0.0 -0.0
-0.0 0.0 -0.0 0.0 0.0 -0.0 -0.0 -0.0
-0.0 -0.0 -0.0 0.0 -0.0 0.0 -0.0 -0.0
-0.0 -0.0 -0.0 0.0 -0.0 -0.0 0.0 0.0
-0.0 -0.0 0.0 -0.0 0.0 0.0 0.0 0.0
0.0 -0.0 0.0 -0.0 -0.0 0.0 0.0 -0.0
0.0 0.0 0.0 0.0 -0.0 0.0 -0.0 0.0
0.0 -0.0 0.0 0.0 -0.0 -0.0 0.0 0.0
-0.0 -0.0 -0.0 0.0 -0.0 0.0 0.0 -0.0
-0.0 -0.0 -0.0 -0.0 -0.0 0.0 0.0 -0.0
0.0 -0.0 0.0 0.0 0.0 -0.0 -0.0 0.0
-0.0 -0.0 -0.0 0.0 -0.0 0.0 0.0 0.0
-0.0 -0.0 0.0 -0.0 -0.0 -0.0 -0.0 -0.0
0.0 0.0 0.0 -0.0 -0.0 -0.0 -0.0 -0.0
0.0 -0.0 0.0 -0.0 -0.0 -0.0 -0.0 0.0
-0.0 -0.0 -0.0 -0.0 -0.0 0.0 -0.0 0.0
0.0 0.0 0.0 -0.0 -0.0 -0.0 -0.0 -0.0
0.0 0.0 0.0 -0.0 -0.0 0.0 0.0 -0.0
0.0 -0.0 -0.0 -0.0 0.0 -0.0 0.0 -0.0
-0.0 0.0 -0.0 0.0 -0.0 0.0 0.0 0.0
00000000: 0000 0080 0000 0000 0000 0080 0000 0080
00000010: 0000 0080 0000 0000 0000 0000 0000 0000
00000020: 0000 0000 0000 0080 0000 0080 0000 0000
00000030: 0000 0080 0000 0000 0000 0080 0000 0000
00000040: 0000 0080 0000 0080 0000 0000 0000 0080
00000050: 0000 0080 0000 0080 0000 0080 0000 0080
00000060: 0000 0080 0000 0080 0000 0080 0000 0000
00000070: 0000 0080 0000 0080 0000 0000 0000 0080
00000080: 0000 0000 0000 0080 0000 0000 0000 0000
00000090: 0000 0000 0000 0080 0000 0080 0000 0080
000000a0: 0000 0080 0000 0080 0000 0080 0000 0080
000000b0: 0000 0080 0000 0080 0000 0080 0000 0080
000000c0: 0000 0000 0000 0080 0000 0080 0000 0080
000000d0: 0000 0000 0000 0080 0000 0080 0000 0080
000000e0: 0000 0000 0000 0080 0000 0080 0000 0080
000000f0: 0000 0000 0000 0080 0000 0000 0000 0080
00000100: 0000 0000 0000 0080 0000 0080 0000 0000
00000110: 0000 0000 0000 0000 0000 0080 0000 0080
00000120: 0000 0080 0000 0080 0000 0080 0000 0080
00000130: 0000 0000 0000 0080 0000 0080 0000 0080
00000140: 0000 0000 0000 0080 0000 0080 0000 0000
00000150: 0000 0000 0000 0080 0000 0080 0000 0000
00000160: 0000 0000 0000 0000 0000 0000 0000 0000
00000170: 0000 0080 0000 0080 0000 0080 0000 0000
00000180: 0000 0000 0000 0080 0000 0000 0000 0080
00000190: 0000 0080 0000 0000 0000 0080 0000 0080
000001a0: 0000 0080 0000 0000 0000 0080 0000 0000
000001b0: 0000 0000 0000 0080 0000 0080 0000 0080
000001c0: 0000 0080 0000 0080 0000 0080 0000 0000
000001d0: 0000 0080 0000 0000 0000 0080 0000 0080
000001e0: 0000 0080 0000 0080 0000 0080 0000 0000
000001f0: 0000 0080 0000 0080 0000 0000 0000 0000
00000200: 0000 0080 0000 0080 0000 0000 0000 0080
00000210: 0000 0000 0000 0000 0000 0000 0000 0000
00000220: 0000 0000 0000 0080 0000 0000 0000 0080
00000230: 0000 0080 0000 0000 0000 0000 0000 0080
00000240: 0000 0000 0000 0000 0000 0000 0000 0000
00000250: 0000 0080 0000 0000 0000 0080 0000 0000
00000260: 0000 0000 0000 0080 0000 0000 0000 0000
00000270: 0000 0080 0000 0080 0000 0000 0000 0000
00000280: 0000 0080 0000 0080 0000 0080 0000 0000
00000290: 0000 0080 0000 0000 0000 0000 0000 0080
000002a0: 0000 0080 0000 0080 0000 0080 0000 0080
000002b0: 0000 0080 0000 0000 0000 0000 0000 0080
000002c0: 0000 0000 0000 0080 0000 0000 0000 0000
000002d0: 0000 0000 0000 0080 0000 0080 0000 0000
000002e0: 0000 0080 0000 0080 0000 0080 0000 0000
000002f0: 0000 0080 0000 0000 0000 0000 0000 0000
00000300: 0000 0080 0000 0080 0000 0000 0000 0080
00000310: 0000 0080 0000 0080 0000 0080 0000 0080
00000320: 0000 0000 0000 0000 0000 0000 0000 0080
00000330: 0000 0080 0000 0080 0000 0080 0000 0080
00000340: 0000 0000 0000 0080 0000 0000 0000 0080
00000350: 0000 0080 0000 0080 0000 0080 0000 0000
00000360: 0000 0080 0000 0080 0000 0080 0000 0080
00000370: 0000 0080 0000 0000 0000 0080 0000 0000
00000380: 0000 0000 0000 0000 0000 0000 0000 0080
00000390: 0000 0080 0000 0080 0000 0080 0000 0080
000003a0: 0000 0000 0000 0000 0000 0000 0000 0080
000003b0: 0000 0080 0000 0000 0000 0000 0000 0080
000003c0: 0000 0000 0000 0080 0000 0080 0000 0080
000003d0: 0000 0000 0000 0080 0000 0000 0000 0080
000003e0: 0000 0080 0000 0000 0000 0080 0000 0000
000003f0: 0000 0080 0000 0000 0000 0000 0000 0000

onnx_tf_prefix_/_continuous_distribution/Mul1 f4 [2]
-0.0 0.0
00000000: 0000 0080 0000 0000

onnx_tf_prefix_/network_body/observation_encoder/processors.1/normalizer/Div;Const_13 f4 [8]
0.0061800913 35.990017 0.005643529 48.05006 2038.8658 0.0056172097 143.79216 2883.3728
00000000: 5d82 ca3b c7f5 0f42 5aed b83b 4333 4042
00000010: b5db fe44 9210 b83b cbca 0f43 f735 3445

onnx_tf_prefix_/network_body/observation_encoder/processors.0/normalizer/Div;Const_14 f4 [10]
2883.3728 8.549911 47.10049 8.344507 88.515 8.343355 2883.3728 8.5499115
2883.3728 8.5499115
00000000: f735 3445 6fcc 0841 e766 3c42 1a83 0541
00000010: ae07 b142 627e 0541 f735 3445 70cc 0841
00000020: f735 3445 70cc 0841

Const_11 f4 [256]
-0.065710194 -0.014283871 0.0030035574 -0.056078646 -0.07385359 -0.05300641 -0.07138059 -0.01383426
-0.113803364 0.034332603 -0.09931797 -0.07914174 -0.07502141 -0.10346406 0.087135546 -0.06664061
0.027905159 -0.054393098 -0.03513794 -0.058037367 -0.13979913 -0.0577386 -0.02944642 -0.079555646
-0.10831159 -0.057648655 -0.0925502 -0.059897456 -0.012361178 -0.099243686 -0.045699857 -0.03751418
-0.05919228 -0.08555197 0.012386661 -0.05337271 -0.064832084 -0.08229204 -0.07483752 -0.08407861
-0.04672508 0.038302686 -0.08333673 -0.0851251 -0.06258259 -0.040507104 -0.044457134 -0.08359604
-0.13985941 -0.10489062 -0.052855544 -0.078596056 -0.05367223 0.0027240005 -0.17231137 -0.056439843
-0.009609681 -0.0018163125 -0.06081974 -0.048212387 -0.020228913 -0.04082943 -0.05075502 -0.094279155
-0.040609483 -0.028860154 0.012621187 -0.05962646 -0.06762425 -0.009142516 0.015168756 -0.03198247
-0.048387103 -0.025586117 -0.112764224 -0.08211032 -0.1753992 -0.030054875 -0.008399284 0.003906021
-0.063690156 -0.058470458 -0.053512737 -0.05058075 -0.12044215 -0.107771225 -0.07183568 -0.04606808
0.041128207 -0.07754492 -0.052739546 -0.11750701 -0.0057390966 -0.20368573 -0.029446164 -0.1253992
-0.051850792 -0.11656928 -0.072238706 -0.0950006 -0.11808435 -0.12964806 -0.044955343 -0.012498137
-0.048757266 -0.110610545 -0.053491022 -0.1111398 -0.035587538 -0.05192179 -0.046503037 -0.08650425
-0.024826681 -0.011782898 -0.047914747 0.015482021 -0.019327838 -0.07088315 -0.0877923 -0.08808904
-0.10627495 -0.025880648 -0.030749217 -0.016839607 -0.08883361 -0.02773842 -0.058832422 -0.05125966
-0.05614366 -0.012204477 -0.097866856 -0.06881245 -0.08079987 -0.12690517 -0.04709943 -0.011582289
-0.0934082 -0.07681733 -0.034787748 -0.021670803 -0.04586307 -0.07492743 -0.120614335 -0.09341091
-0.046015617 -0.14711492 -0.062181387 -0.06696985 -0.08702412 -0.0148575455 -0.059860643 -0.045302186
-0.08147938 -0.0616905 -0.08276161 0.021066012 -0.11537589 -0.023048272 -0.07868236 -0.09059106
0.02800124 -0.005399551 -0.090811096 -0.019719342 -0.08495452 -0.06648443 -0.061046537 -0.057463124
-0.11467435 -0.06275318 -0.08053503 -0.0832578 -0.08979701 -0.05692798 -0.056861922 -0.11493477
0.03667925 -0.15444571 -0.029670969 -0.07834954 -0.037626203 -0.06935015 -0.13405007 -0.087780654
-0.08832093 -0.05011996 -0.06330559 -0.09217172 -0.026808865 -0.029552061 -0.10787208 -0.106936365
-0.11370439 -0.06928409 -0.054471534 0.0037804449 0.022582842 -0.11167694 -0.08466781 -0.008588944
-0.046971444 -0.08526721 -0.08680967 -0.052851375 -0.059904583 -0.10399585 -0.031674843 -0.14985707
-0.06287827 -0.0242625 -0.01761372 -0.055943545 -0.06272996 -0.13010545 -0.009620988 -0.09667989
-0.0947893 -0.020206032 -0.09453737 -0.04747212 -0.07813338 -0.03723988 -0.1480112 -0.068632685
-0.009294103 -0.002159532 -0.09115739 -0.031103335 0.0016900427 -0.01588737 0.0062733754 -0.114882044
-0.08130778 -0.044664066 -0.016668547 -0.07860465 -0.053913306 -0.10753355 -0.07070029 -0.13547015
-0.00062843534 -0.12969865 -0.077733226 -0.08257672 -0.12463752 -0.09164338 -0.024380457 -0.063662775
-0.13143244 0.018091386 -0.040402465 -0.11943342 -0.124328665 -0.03338571 -0.06550328 -0.01753605
00000000: 1193 86bd e606 6abc 55d7 443b b9b2 65bd
00000010: 8d40 97bd 401d 59bd fd2f 92bd 18a9 62bc
00000020: bd11 e9bd 58a0 0c3d 3867 cbbd 1115 a2bd
00000030: d3a4 99bd f7e4 d3bd 1f74 b23d df7a 88bd
00000040: 5c99 e43c 4ccb 5ebd cdec 0fbd 97b8 6dbd
00000050: 8127 0fbe 4f7f 6cbd 9e39 f1bc 12ee a2bd
00000060: 78d2 ddbd ff20 6cbd f68a bdbd 0957 75bd
00000070: 8a86 4abc 4640 cbbd c62f 3bbd 78a8 19bd
00000080: 9b73 72bd df35 afbd 6cf1 4a3c 589d 5abd
00000090: afc6 84bd bb88 a8bd 6a44 99bd 6831 acbd
000000a0: cc62 3fbd 47e3 1c3d 73ac aabd 1256 aebd
000000b0: 4d2b 80bd c7ea 25bd af18 36bd 6734 abbd
000000c0: 4e37 0fbe e5d0 d6bd 0e7f 58bd f8f6 a0bd
000000d0: 6ad7 5bbd 2585 323b 6472 30be 772d 67bd
000000e0: ec71 1dbc 5611 eeba 1f1e 79bd 5a7a 45bd
000000f0: 1bb7 a5bc c33c 27bd 7fe4 4fbd 6e15 c1bd
00000100: 2156 26bd 216c ecbc 18c9 4e3c e03a 74bd
00000110: 957e 8abd 7eca 15bc 6086 783c 0d00 03bd
00000120: 8e31 46bd fa99 d1bc eef0 e6bd 7529 a8bd
00000130: d99b 33be a435 f6bc 279d 09bc 28fc 7f3b
00000140: fc6f 82bd b87e 6fbd 2c30 5bbd c32d 4fbd
00000150: 60aa f6bd 29b7 dcbd 961e 93bd e2b1 3cbd
00000160: 0d76 283d dfcf 9ebd 6c05 58bd 84a7 f0bd
00000170: 080f bcbb fe92 50be 1539 f1bc a668 00be
00000180: 7f61 54bd e0bb eebd e3f1 93bd ad8f c2bd
00000190: 35d6 f1bd 76c2 04be 1823 38bd fcc4 4cbc
000001a0: b3b5 47bd c887 e2bd 6719 5bbd 439d e3bd
000001b0: 3dc4 11bd f1ab 54bd f879 3ebd 2429 b1bd
000001c0: 5361 cbbc 0e0d 41bc 4142 44bd 4da8 7d3c
000001d0: 6a55 9ebc 2f2b 91bd 73cc b3bd 0768 b4bd
000001e0: aea6 d9bd a703 d4bc c8e5 fbbc 37f3 89bc
000001f0: 65ee b5bd af3b e3bc 44fa 70bd a6f5 51bd
00000200: e5f6 65bd 49f5 47bc 6b6e c8bd 8bed 8cbd
00000210: 677a a5bd 6ef3 01be 55eb 40bd a4c3 3dbc
00000220: cc4c bfbd 6852 9dbd 997d 0ebd f886 b1bc
00000230: eada 3bbd 8d73 99bd a604 f7bd 384e bfbd
00000240: df7a 3cbd 4ba5 16be e9b1 7ebd 7d27 89bd
00000250: b439 b2bd 106d 73bc 6f30 75bd c98e 39bd
00000260: a9de a6bd 2daf 7cbd eb7e a9bd a192 ac3c
00000270: 324a ecbd bbcf bcbc 3824 a1bd ce87 b9bd
00000280: db62 e53c b7ee b0bb 2bfb b9bd 758a a1bc
00000290: a3fc adbd fd28 88bd ef0b 7abd 745e 6bbd
000002a0: 63da eabd bd84 80bd 8def a4bd 1183 aabd
000002b0: 7fe7 b7bd 502d 69bd 0ce8 68bd ec62 ebbd
000002c0: fb3c 163d 0427 1ebe 8810 f3bc b975 a0bd
000002d0: ef1d 1abd 7407 8ebd 6c44 09be 58c6 b3bd
000002e0: 9be1 b4bd 964a 4dbd 5ca6 81bd 87c4 bcbd
000002f0: 449e dbbc 2a17 f2bc 09ec dcbd 7401 dbbd
00000300: d9dd e8bd d1e4 8dbd 8b1d 5fbd 57c1 773b
00000310: a7ff b83c e1b6 e4bd 5166 adbd a4b8 0cbc
00000320: 2165 40bd 93a0 aebd 45c9 b1bd af7a 58bd
00000330: 825e 75bd c7fb d4bd 7bbd 01bd 2274 19be
00000340: 53c6 80bd 27c2 c6bc a64a 90bc 0f25 65bd
00000350: 9178 80bd 5d3a 05be 59a1 1dbc 1b00 c6bd
00000360: e420 c2bd 1f87 a5bc cf9c c1bd 2072 42bd
00000370: 6504 a0bd d888 18bd 3f90 17be 4b8f 8cbd
00000380: 4b46 18bc ef86 0dbb bab0 babd 6ccc febc
00000390: 6c84 dd3a 3b26 82bc e390 cd3b 4747 ebbd
000003a0: b284 a6bd abf1 36bd 7a8c 88bc 7afb a0bd
000003b0: 33d4 5cbd 8d3a dcbd 50cb 90bd b0b8 0abe
000003c0: 95bd 24ba b9cf 04be 9932 9fbd fc1d a9bd
000003d0: f541 ffbd 86af bbbd 86b9 c7bc a161 82bd
000003e0: 3a96 06be 6334 943c 0e7d 25bd 8299 f4bd
000003f0: 07a0 febd 74bf 08bd 9526 86bd c3a7 8fbc

Const_15 f4 [8]
1.8187768 79.99787 8.203069 59.998695 0.99997884 -6.3842688 19.999468 0.0
00000000: aecd e83f e9fe 9f42 c53f 0341 aafe 6f42
00000010: 9dfe 7f3f ee4b ccc0 e9fe 9f41 0000 0000

Const_16 f4 [10]
0.0 0.5204003 0.0004512872 0.51680624 0.0001276195 0.52170676 0.0 0.51885885
0.0 0.51885885
00000000: 0000 0000 f438 053f be9a ec39 6a4d 043f
00000010: 99d1 0539 938e 053f 0000 0000 efd3 043f
00000020: 0000 0000 efd3 043f

Const_3 f4 [1, 2]
0.0 0.0
00000000: 0000 0000 0000 0000

Const_5 f4 [1, 2]
-0.49970195 -0.54504466
00000000: efd8 ffbe 0c88 0bbf

Const_7 f4 [2]
-0.028453821 0.008654697
00000000: fd17 e9bc 6ecc 0d3c

Const_9 f4 [256]
0.04158826 -0.08139631 -0.02079659 0.01999251 -0.023510437 0.034475 0.0098633375 -0.00384631
0.023304256 0.021365685 -0.009655995 0.044627693 -0.02585496 -0.012676164 -0.033796366 0.018301088
-0.0057584466 -0.045271587 0.0012714389 0.08528546 0.008111136 0.035550877 0.033203177 -0.09316948
0.084978096 -0.018444916 -0.03756052 -0.034988374 0.059522804 0.040239815 -0.007798836 0.031547174
0.04927169 0.08773402 -0.03776776 -0.001457345 0.029845042 -0.0037120562 -0.03382106 -0.012660633
-0.025855105 -0.06612397 0.018323071 -0.053532295 0.0011193267 -0.020637799 -0.030102454 -0.0067732586
-0.03483481 0.008329235 -0.019050581 0.014292697 -0.060075548 0.031617656 -0.022093356 0.00056271156
0.011990851 -0.08578744 0.076576 -0.00040454054 0.0012333761 -0.050610144 -0.010309736 -0.033458956
-0.041569624 -0.034930304 0.016201906 0.005671439 0.028034171 0.061552398 -0.037843894 -0.030741395
0.02586091 0.0013536836 0.05522405 0.0018341417 -0.028785424 -0.037286174 0.034116555 0.0022113374
0.0713386 -0.074760266 0.13724585 -0.021438591 -0.0154569885 -0.088927574 -0.07954112 -0.055681705
-0.06375551 -0.062292807 -0.013449857 0.0044475733 -0.044812452 0.023656702 -0.0015516606 0.02928766
-0.014011154 -0.01577823 -0.0109921815 -0.0119215185 -0.04183661 -0.027232096 -0.035514336 0.011807313
0.04277364 -0.026970096 0.079591535 -0.034820333 -0.04000142 -0.040287804 0.069536656 0.041977257
-0.040378105 -0.018356467 -0.044025052 -0.052480888 -0.058654893 -0.014601705 0.0014238378 -0.052311283
-0.05014747 -0.058649205 -0.03860247 0.0090139005 0.07330688 -0.0075084544 0.002358731 0.0060119303
0.045989495 -0.034922965 -0.0015511235 0.07310039 -0.06797733 -0.0028199935 -0.07938839 -0.023754913
0.009040643 -0.011908033 -0.007991448 -0.023720639 -0.052137587 0.041281834 0.044851176 -0.040349685
-0.012230808 0.001585257 -0.05289177 0.057967097 -0.0054668467 0.011472752 -0.021035181 -0.006212377
0.01822064 -0.009429484 0.026396226 -0.008103047 -0.08133389 -0.029831016 0.037088715 -0.03606239
-0.011768004 -0.01745737 0.0042330883 -0.043170664 -0.055243712 -0.032092784 0.06318307 0.02433769
0.0054682684 -0.0067627016 -0.013146185 0.039199706 -0.037779853 0.017642755 0.020073239 -0.010370653
-0.0010167249 -0.047894463 -0.017493052 0.04910984 0.028533643 0.07699848 0.066064656 -0.006694389
0.053737782 0.07510694 0.015544562 0.023406252 -0.0028235542 0.04172453 0.027790034 0.0007775442
-0.024293534 0.018787773 -0.007295415 1.2621931e-05 -0.0151009625 -0.07626726 0.025242168 0.08012688
0.023860727 -0.03871588 0.056106173 0.060808346 0.009481502 0.077989414 -0.069829054 0.0046945303
-0.037868362 0.10866106 0.013984886 -0.02897837 0.028252492 0.06491652 0.0016648587 -0.015609131
0.015303353 -0.077302575 0.018977914 0.056090616 0.02225121 0.033886094 -0.03027874 -0.021226525
-0.017335037 -0.059845176 0.04835925 -0.04027566 0.041988652 -0.032534935 0.032641552 -0.027352814
-0.014820822 -0.049809102 0.08979695 -0.01777598 -0.012300736 -0.065874025 -0.045181617 0.032367684
-0.0028561044 0.0051854327 -0.007165042 -0.0484812 0.08602822 0.054626096 -0.031506475 -0.012372371
-0.059051644 -0.03274343 -0.025463197 -0.022642896 0.00637431 0.026418429 0.017960953 0.011147616
00000000: 7458 2a3d 1cb3 a6bd 9c5d aabc 55c7 a33c
00000010: f698 c0bc a835 0d3d d699 213c 6012 7cbb
00000020: 91e8 be3c 1707 af3c 2e34 1ebc 87cb 363d
00000030: c8cd d3bc afaf 4fbc 0f6e 0abd 2aec 953c
00000040: 5ab1 bcbb b36e 39bd 69a6 a63a 25aa ae3d
00000050: 92e4 043c cc9d 113d 0e00 083d a4cf bebd
00000060: ff08 ae3d cb19 97bc 0fd9 19bd f84f 0fbd
00000070: 2fce 733d 81d2 243d 618d ffbb 9c37 013d
00000080: 1dd1 493d e5ad b33d 5eb2 1abd 6204 bfba
00000090: 977d f43c f845 73bb f487 0abd 8b6e 4fbc
000000a0: 16ce d3bc 016c 87bd 441a 963c ae44 5bbd
000000b0: 5fb6 923a 9a10 a9bc 6c99 f6bc 36f2 ddbb
000000c0: f2ae 0ebd 5877 083c f70f 9cbc eb2b 6a3c
000000d0: c711 76bd 8481 013d 20fd b4bc ef82 133a
000000e0: 4675 443c 53b1 afbd e1d3 9c3d 8318 d4b9
000000f0: 3ca9 a13a 954c 4fbd 2bea 28bc 420c 09bd
00000100: e944 2abd 1413 0fbd dcb9 843c 7bd7 b93b
00000110: eba7 e53c 5e1e 7c3d 3302 1bbd 61d5 fbbc
00000120: 42da d33c 166e b13a 9d32 623d 9567 f03a
00000130: 69cf ebbc 63b9 18bd cdbd 0b3d 16ec 103b
00000140: f919 923d e91b 99bd 2d8a 0c3e fc9f afbc
00000150: 4f3f 7dbc a91f b6bd 74e6 a2bd 8012 64bd
00000160: 4092 82bd be26 7fbd ca5c 5cbc f3bc 913b
00000170: 438d 37bd b3cb c13c 1761 cbba adec ef3c
00000180: 0a8f 65bc 5941 81bc 8d18 34bc 7952 43bc
00000190: dd5c 2bbd d815 dfbc 7b77 11bd 7673 413c
000001a0: 6a33 2f3d 64f0 dcbc e300 a33d c49f 0ebd
000001b0: 87d8 23bd d304 25bd 3c69 8e3d 58f0 2b3d
000001c0: 8363 25bd 4d60 96bc 9d53 34bd 33f6 56bd
000001d0: 1d40 70bd fd3b 6fbc 12a0 ba3a 5b44 56bd
000001e0: 6f67 4dbd 263a 70bd a01d 1ebd 0aaf 133c
000001f0: eb21 963d 7b09 f6bb f194 1a3b baff c43b
00000200: 7b5f 3c3d 620b 0fbd 114f cbba a8b5 953d
00000210: b337 8bbd a4cf 38bb 6196 a2bd aa99 c2bc
00000220: 351f 143c e919 43bc 90ee 02bc c951 c2bc
00000230: 398e 55bd 2417 293d deb5 373d b645 25bd
00000240: ba63 48bc 66c8 cf3a 0aa5 58bd e86e 6d3d
00000250: 3c23 b3bb 36f8 3b3c f951 acbc 3291 cbbb
00000260: 7443 953c 1f7e 1abc e63c d83c a4c2 04bc
00000270: 6292 a6bd 2d60 f4bc 56ea 173d 28b6 13bd
00000280: 96ce 40bc c202 8fbc b8b5 8a3b b9d3 30bd
00000290: 3b47 62bd b973 03bd 2066 813d d65f c73c
000002a0: 292f b33b a799 ddbb 1963 57bc df8f 203d
000002b0: 0cbf 1abd 8a87 903c a270 a43c ace9 29bc
000002c0: a043 85ba fc2c 44bd 974d 8fbc 6627 493d
000002d0: 63bf e93c 61b1 9d3d e84c 873d 9b5c dbbb
000002e0: 261c 5c3d abd1 993d 9eae 7e3c 78be bf3c
000002f0: 610b 39bb 57e7 2a3d eda7 e33c 1cd4 4b3a
00000300: 3c03 c7bc d1e8 993c 600e efbb c8c2 5337
00000310: 076a 77bc 0232 9cbd aac8 ce3c 9019 a43d
00000320: 9277 c33c 8b94 1ebd 96cf 653d 2c12 793d
00000330: 4d58 1b3c eab8 9f3d 8902 8fbd 93d4 993b
00000340: db1b 1bbd b189 de3d dd20 653c 0c64 edbc
00000350: c571 e73c f4f2 843d 6337 da3a 71bd 7fbc
00000360: eaba 7a3c d050 9ebd 9277 9b3c 46bf 653d
00000370: 2b48 b63c 25cc 0a3d 1f0b f8bc 40e3 adbc
00000380: 3502 8ebc 3720 75bd 5914 463d 17f8 24bd
00000390: 4bfc 2b3d 5a43 05bd 26b3 053d 0213 e0bc
000003a0: 08d3 72bc a104 4cbd 77e7 b73d ef9e 91bc
000003b0: 0789 49bc f6e8 86bd 5c10 39bd fa93 043d
000003c0: 7b2d 3bbb 90ea a93b bbc8 eabb 3994 46bd
000003d0: 902f b03d 9dbf 5f3d ef0c 01bd 7cb5 4abc
000003e0: 23e0 71bd fa1d 06bd 3298 d0bc 987d b9bc
000003f0: 96df d03b 766b d83c d922 933c 7ea4 363c

MatMul i1 [256, 18] scale=0.011962333 zero_point=0
-0.143548 0.13158566 -0.23924665 0.13158566 -0.071774 0.29905832 -0.071774 0.15551032
-0.251209 0.16747266 0.17943498 -0.143548 -0.27513364 -0.04784933 0.38279465 -0.143548
-0.035887 -0.33494532 -0.26317132 -0.011962333 -0.15551032 0.04784933 0.37083232 -0.13158566
-0.119623326 0.071774 -0.23924665 -0.119623326 0.13158566 0.09569866 0.035887 0.04784933
0.0 0.0 0.143548 0.119623326 0.071774 0.17943498 -0.37083232 -0.13158566
-0.15551032 -0.035887 -0.23924665 0.09569866 -0.31102064 0.13158566 -0.023924666 -0.34690765
0.04784933 -0.33494532 -0.011962333 -0.23924665 0.34690765 -0.19139732 0.08373633 -0.15551032
0.16747266 -0.26317132 0.023924666 0.21532199 -0.29905832 -0.17943498 -0.19139732 0.40671933
-0.119623326 0.0 -0.011962333 0.059811663 -0.49045566 1.1244593 -0.20335966 0.059811663
-0.31102064 0.17943498 0.16747266 0.119623326 -0.13158566 0.011962333 -0.22728433 -0.107660994
-0.107660994 0.26317132 0.41868165 -0.37083232 -0.20335966 -0.035887 0.22728433 0.09569866
0.13158566 -0.011962333 -0.20335966 -0.52634263 0.19139732 0.27513364 0.46653098 -0.71773994
0.22728433 -0.04784933 -0.41868165 0.27513364 0.107660994 -0.04784933 0.66989064 0.09569866
-0.26317132 -1.004836 0.059811663 -0.17943498 0.13158566 0.143548 0.071774 -0.33494532
0.22728433 -0.17943498 -0.56222963 0.23924665 -0.33494532 -0.21532199 0.13158566 -0.37083232
-0.35886997 -0.20335966 0.29905832 -0.31102064 0.27513364 0.538305 -0.21532199 0.49045566
-0.16747266 -0.20335966 -0.33494532 0.26317132 0.107660994 -0.119623326 -0.35886997 -0.33494532
0.143548 -0.22728433 -0.52634263 -0.22728433 0.35886997 0.78951395 0.023924666 -0.107660994
-0.035887 -0.143548 0.31102064 -0.33494532 -0.107660994 0.16747266 -0.37083232 -0.13158566
0.143548 0.40671933 -0.071774 -0.16747266 0.023924666 0.035887 -0.29905832 0.251209
-0.09569866 0.09569866 -0.34690765 -0.09569866 0.011962333 0.38279465 0.0 0.38279465
-0.40671933 -0.23924665 0.143548 -0.21532199 -0.071774 0.26317132 -0.143548 0.023924666
0.035887 -0.23924665 0.011962333 -0.059811663 -0.13158566 -0.09569866 -0.035887 -0.035887
-0.27513364 0.17943498 -0.04784933 -0.023924666 0.107660994 0.33494532 0.37083232 -0.107660994
-0.26317132 -0.04784933 0.035887 -0.09569866 0.04784933 -0.22728433 -0.41868165 -0.19139732
-0.13158566 -0.38279465 -0.15551032 -0.26317132 -0.15551032 0.27513364 0.287096 -0.16747266
-0.35886997 -0.15551032 0.251209 0.011962333 -0.21532199 -0.9569866 0.071774 -0.287096
0.0 -0.16747266 0.322983 0.011962333 -0.23924665 0.19139732 0.023924666 -0.107660994
-0.035887 0.251209 0.16747266 -0.20335966 -0.107660994 0.059811663 0.143548 -0.610079
-0.51438034 -0.40671933 -0.17943498 0.15551032 0.4426063 0.19139732 -0.35886997 -0.13158566
-0.107660994 0.0 -0.251209 -0.38279465 -0.023924666 -0.322983 0.09569866 -0.40671933
0.322983 -0.33494532 -0.56222963 -0.52634263 0.13158566 0.13158566 0.15551032 -0.33494532
00000000: f40b ec0b fa19 fa0d eb0e 0ff4 e9fc 20f4
00000010: fde4 eaff f304 1ff5 f606 ecf6 0b08 0304
00000020: 0000 0c0a 060f e1f5 f3fd ec08 e60b fee3
00000030: 04e4 ffec 1df0 07f3 0eea 0212 e7f1 f022
00000040: f600 ff05 d75e ef05 e60f 0e0a f501 edf7
00000050: f716 23e1 effd 1308 0bff efd4 1017 27c4
00000060: 13fc dd17 09fc 3808 eaac 05f1 0b0c 06e4
00000070: 13f1 d114 e4ee 0be1 e2ef 19e6 172d ee29
00000080: f2ef e416 09f6 e2e4 0ced d4ed 1e42 02f7
00000090: fdf4 1ae4 f70e e1f5 0c22 faf2 0203 e715
000000a0: f808 e3f8 0120 0020 deec 0cee fa16 f402
000000b0: 03ec 01fb f5f8 fdfd e90f fcfe 091c 1ff7
000000c0: eafc 03f8 04ed ddf0 f5e0 f3ea f317 18f2
000000d0: e2f3 1501 eeb0 06e8 00f2 1b01 ec10 02f7
000000e0: fd15 0eef f705 0ccd d5de f10d 2510 e2f5
000000f0: f700 ebe0 fee5 08de 1be4 d1d4 0b0b 0de4

MatMul_1 i1 [256, 256] scale=0.0059380326 zero_point=0
0.035628196 0.0 -0.02375213 -0.11876065 -0.0059380326 -0.10094655 -0.04156623 0.07125639
0.059380326 -0.07125639 -0.029690163 -0.106884584 -0.08907049 0.035628196 -0.029690163 -0.11282262
0.017814098 0.02375213 -0.08907049 -0.029690163 0.02375213 -0.106884584 0.029690163 -0.017814098
0.0059380326 0.0 0.06531836 -0.07125639 0.17814098 -0.06531836 0.04156623 -0.0059380326
0.011876065 -0.02375213 0.0 -0.04156623 0.017814098 -0.02375213 0.029690163 -0.017814098
-0.059380326 -0.059380326 0.011876065 -0.035628196 -0.106884584 0.02375213 0.035628196 -0.06531836
-0.011876065 0.08907049 0.0059380326 0.011876065 0.035628196 -0.059380326 0.053442292 0.053442292
-0.0059380326 0.0 -0.017814098 0.04750426 0.04156623 0.02375213 -0.04750426 -0.035628196
0.08907049 0.053442292 0.10094655 0.017814098 0.09500852 0.029690163 -0.04156623 -0.011876065
-0.0059380326 0.04156623 -0.0059380326 -0.02375213 -0.0059380326 0.035628196 -0.0059380326 -0.07125639
0.07719442 -0.059380326 -0.04156623 -0.02375213 0.035628196 0.017814098 -0.04156623 0.035628196
-0.029690163 0.0059380326 0.10094655 0.106884584 0.035628196 -0.08907049 0.017814098 -0.02375213
-0.07125639 -0.035628196 -0.04156623 0.04750426 0.017814098 0.09500852 0.04156623 0.04156623
0.053442292 0.04156623 -0.07719442 0.0 0.011876065 -0.035628196 0.059380326 0.0
-0.08907049 -0.011876065 0.106884584 0.02375213 -0.07719442 0.029690163 -0.02375213 -0.0059380326
-0.04750426 -0.029690163 0.029690163 0.04156623 0.04750426 -0.07125639 0.053442292 0.035628196
-0.053442292 -0.053442292 -0.017814098 -0.04156623 -0.0059380326 -0.14251278 -0.017814098 -0.059380326
-0.029690163 -0.011876065 0.11876065 0.04750426 -0.02375213 -0.059380326 0.07719442 0.0059380326
0.11282262 -0.053442292 0.0059380326 -0.017814098 -0.07125639 -0.08313246 -0.04750426 0.13657475
-0.017814098 -0.0059380326 -0.017814098 0.017814098 0.08313246 0.08313246 -0.10094655 -0.11282262
0.017814098 0.029690163 0.035628196 0.04156623 0.06531836 -0.07125639 0.11282262 0.017814098
0.059380326 -0.0059380326 0.059380326 0.04750426 -0.08907049 -0.017814098 -0.0059380326 0.029690163
0.035628196 -0.02375213 -0.10094655 0.053442292 0.029690163 -0.029690163 0.04156623 0.035628196
-0.0059380326 -0.053442292 0.02375213 0.0059380326 0.0 -0.035628196 -0.04156623 -0.02375213
0.035628196 -0.11876065 0.059380326 0.017814098 0.06531836 -0.02375213 0.0 0.0059380326
-0.011876065 0.07125639 0.035628196 0.0059380326 -0.029690163 -0.07719442 -0.04750426 -0.029690163
0.035628196 -0.017814098 0.06531836 -0.053442292 0.07125639 -0.0059380326 -0.22564524 -0.011876065
-0.035628196 -0.07719442 -0.035628196 0.017814098 -0.07125639 0.106884584 0.029690163 -0.0059380326
-0.14251278 -0.029690163 0.053442292 -0.04156623 -0.017814098 0.08313246 -0.08313246 -0.04750426
0.04750426 0.02375213 -0.11876065 -0.02375213 -0.029690163 0.08313246 0.106884584 0.029690163
-0.029690163 -0.035628196 0.07719442 0.09500852 -0.106884584 -0.13657475 0.0059380326 0.08313246
-0.04750426 0.053442292 -0.04750426 -0.04156623 -0.11282262 -0.017814098 0.08313246 0.04156623
00000000: 0600 fcec ffef f90c 0af4 fbee f106 fbed
00000010: 0304 f1fb 04ee 05fd 0100 0bf4 1ef5 07ff
00000020: 02fc 00f9 03fc 05fd f6f6 02fa ee04 06f5
00000030: fe0f 0102 06f6 0909 ff00 fd08 0704 f8fa
00000040: 0f09 1103 1005 f9fe ff07 fffc ff06 fff4
00000050: 0df6 f9fc 0603 f906 fb01 1112 06f1 03fc
00000060: f4fa f908 0310 0707 0907 f300 02fa 0a00
00000070: f1fe 1204 f305 fcff f8fb 0507 08f4 0906
00000080: f7f7 fdf9 ffe8 fdf6 fbfe 1408 fcf6 0d01
00000090: 13f7 01fd f4f2 f817 fdff fd03 0e0e efed
000000a0: 0305 0607 0bf4 1303 0aff 0a08 f1fd ff05
000000b0: 06fc ef09 05fb 0706 fff7 0401 00fa f9fc
000000c0: 06ec 0a03 0bfc 0001 fe0c 0601 fbf3 f8fb
000000d0: 06fd 0bf7 0cff dafe faf3 fa03 f412 05ff
000000e0: e8fb 09f9 fd0e f2f8 0804 ecfc fb0e 1205
000000f0: fbfa 0d10 eee9 010e f809 f8f9 edfd 0e07
