TeamCode/src/main/assets/BODY.onnx (onnx, 281819 bytes, 9 tensors)

network_body.observation_encoder.processors.0.normalizer.running_mean f4 [9]
0	0xbbc82e5f	-0.0061090435
1	0xbb519e71	-0.0031985308
2	0x39b9a703	0.00035410383
3	0x3b84d3a8	0.0040535517
4	0xbc0241d5	-0.007950266
5	0x3b0f2603	0.0021842725
6	0x3ef1109c	0.47082984
7	0xbb41d8c2	-0.002957866
8	0x3a521eab	0.0008015434

network_body._body_endoder.seq_layers.0.weight f4 [256, 9]
0	0xbe509a2c	-0.20371312
1	0xbb9d58f6	-0.0048018647
2	0x3d55a127	0.05215564
3	0x3e988d73	0.29795417
4	0xbe26bf19	-0.16283835
5	0x3e9614aa	0.2931264
6	0x3e9c3b16	0.3051383
7	0x3d4d7cdd	0.050167907
8	0xbd211e94	-0.039335802
9	0xbe44c18c	-0.19214457
10	0xbeb1ac1d	-0.34701625
11	0xbedb285f	-0.42804238
12	0xbf2d6d72	-0.67745125
13	0x3d8f066c	0.06983647
14	0x3f209fa8	0.62743616
15	0xbdb32c47	-0.087486796
16	0x3f3e2b9e	0.74285305
17	0xbce48c57	-0.02789895
18	0x3ca5aeed	0.020225013
19	0xbe47451c	-0.19459957
20	0x3e24d2a2	0.16095975
21	0x3f22f52f	0.6365537
22	0x3f735d49	0.95064217
23	0xbe66080c	-0.22464007
24	0x3f17b2eb	0.5925738
25	0x3f708d43	0.9396555
26	0x3ecc425a	0.39894372
27	0xbe82fb10	-0.2558217
28	0x3f50fa2a	0.8163172
29	0x3e0f2303	0.139782
30	0x3dec52cf	0.11539232
31	0x3e8fd373	0.2809101
32	0x3e9f5b5c	0.3112439
33	0x3ea87899	0.3290451
34	0x3e85d551	0.2613931
35	0xbd8f2ba9	-0.069907494
36	0x3ee7a4e6	0.45242995
37	0xbe435cac	-0.1907832
38	0x3cd5de02	0.026106838
39	0x3dded701	0.108808525
40	0xbf4bd0fd	-0.79615766
41	0x3d2e7478	0.042591542
42	0xbed5bdea	-0.41746455
43	0xbe6b555c	-0.22981781
44	0xbededa90	-0.43526125
45	0xbdcc6000	-0.09979248
46	0x3d0ebcbe	0.034847967
47	0x3e6e9e2c	0.23302525
48	0x3f00f024	0.50366426
49	0xbe69a852	-0.22818115
50	0xbeb52d15	-0.35385957
51	0xbdfb4dd4	-0.12270704
52	0x3d9955eb	0.07487091
53	0xbe530c55	-0.20610173
54	0x3ecc6b03	0.39925393
55	0x3f2f4333	0.6846191
56	0x3ecb3893	0.396916
57	0xbee97514	-0.45597136
58	0x3e630104	0.22168356
59	0x3e33f080	0.17572212
60	0xbeb22da7	-0.34800455
61	0x3f2a2c4a	0.6647383
62	0xbe0cddaf	-0.1375644
63	0xbdb468da	-0.08809061
64	0xbe4254d7	-0.18977676
65	0xbe9bf02f	-0.30456683
66	0x3ece9d97	0.40354607
67	0x3ee4501a	0.44592363
68	0xbd6e121e	-0.058122747
69	0x3d8aba32	0.06773795
70	0x3f34bedb	0.7060372
71	0xbd941d93	-0.07232203
72	0x3eaadc7e	0.33371347
73	0xbf92095b	-1.1409105
74	0xbd887aff	-0.06664085
75	0xbd16ce4e	-0.03681784
76	0x3ef27663	0.47355947
77	0xbda93223	-0.08261516
78	0x3ec944b7	0.39310238
79	0x3dc9b554	0.09849039
80	0x3ebeba0c	0.37251318
81	0x3e02d13f	0.12775134
82	0xbdb01107	-0.08596998
83	0x3e862aa5	0.2620441
84	0x3f066227	0.5249352
85	0xbec705f6	-0.38871735
86	0xbd952307	-0.072820716
87	0x3e2c3d41	0.16820242
88	0xbe24d365	-0.16096266
89	0x3e6b7331	0.22993161
90	0x3e38fa1e	0.18064162
91	0xbe7e58c8	-0.24838555
92	0x3e8fb648	0.28068757
93	0xbe41cda8	-0.18926108
94	0xbeefa352	-0.4680429
95	0xbf150d3d	-0.58223325
96	0xbe82b75b	-0.25530514
97	0x3d69985e	0.057030074
98	0xbee6b1e3	-0.45057592
99	0x3eef1542	0.46695906
100	0x3f670cb0	0.90253735
101	0xbc8b5f67	-0.017013265
102	0x3f30bf0a	0.690415
103	0x3eb056a0	0.3444109
104	0xbe9f0f6c	-0.31066453
105	0x3d67a65f	0.05655515
106	0xbdc19106	-0.09451489
107	0x3e765de8	0.2405926
108	0xbbc91582	-0.006136597
109	0x3e8b9473	0.27261695
110	0xbe329679	-0.17440213
111	0x3c61baea	0.013777474
112	0x3ef122cb	0.47096857
113	0xbe1c4c52	-0.15263489
114	0x3e3ebe0b	0.18627183
115	0x3dc14450	0.09436858
116	0xbddc6b4f	-0.10762655
117	0xbf53fc12	-0.82806504
118	0x3f06fc67	0.52728885
119	0x3c2dc014	0.010604877
120	0xbddfe686	-0.10932641
121	0x3e0849fa	0.1330947
122	0xbef10e70	-0.47081327
123	0x3e8b2804	0.27178967
124	0xbeb48644	-0.35258687
125	0x3eeed960	0.4665022
126	0xbf3a4570	-0.72762203
127	0x3f1f1312	0.62138474
128	0x3eb1e793	0.3474699
129	0xbe684565	-0.22682722
130	0x3decfce1	0.1157167
131	0x3d8be13f	0.06830072
132	0x3eddeef3	0.43346366
133	0xbf73f5a7	-0.9529671
134	0xbdb444ba	-0.08802171
135	0xbd08b4a0	-0.033375382
136	0x3e5d2e90	0.21599793
137	0x3e652af9	0.22379674
138	0x3ec5c635	0.38627782
139	0x3e2ce8f5	0.16885741
140	0xbe73a3b5	-0.23792918
141	0xbf34f0fc	-0.7068021
142	0x3e282ac5	0.16422565
143	0xbd9cff7a	-0.07665916
144	0xbe5a4d9a	-0.21318665
145	0xbe8b3717	-0.27190468
146	0xbdbbb2ea	-0.091649845
147	0xbd897838	-0.06712383
148	0x3e2932c2	0.16523269
149	0x3e3632bb	0.1779279
150	0xbd8398a7	-0.064256005
151	0x3dd4a845	0.10383657
152	0xbe87b4c4	-0.265051
153	0xbeb10e02	-0.34581
154	0x3eb2fd71	0.34958985
155	0xbf3ab42a	-0.7293116
156	0xbee54f83	-0.44787225
157	0x3e82943c	0.2550372
158	0xbf6ddc86	-0.9291462
159	0x3eb28401	0.34866336
160	0xbd49a2d2	-0.049227543
161	0x3e207acd	0.15671845
162	0x3e3ea2c9	0.18616785
163	0x3eb3230c	0.34987676
164	0xbd486565	-0.048924822
165	0xbe7aef46	-0.24505338
166	0x3e5593d8	0.20857179
167	0x3f108e85	0.5646747
168	0x3eaaf248	0.3338797
169	0xbdc0dd35	-0.09417192
170	0xbed5841f	-0.41702363
171	0x3f765dd5	0.96236926
172	0xbe673b57	-0.2258123
173	0xbda064de	-0.07831739
174	0x3d8bb871	0.06822289
175	0x3e7fc642	0.24977973
176	0x3e913fa2	0.2836886
177	0x3da5a654	0.08088365
178	0x3f725fea	0.94677603
179	0xbd1f2307	-0.038851764
180	0xbd44b9c6	-0.04802873
181	0x3eb3fd7f	0.3515434
182	0xbf23c7a5	-0.6397651
183	0xbe7871ba	-0.24262133
184	0xbebe04dd	-0.37113085
185	0x3e959656	0.2921626
186	0xbdfe31ce	-0.12411843
187	0x3e56262e	0.20913002
188	0xbd9e34ae	-0.077248916
189	0xbc8af8ae	-0.016964283
190	0xbe0d557c	-0.13802141
191	0xbf7f4e3c	-0.9972875
192	0xbe1b8438	-0.15187156
193	0x3f07777f	0.5291671
194	0xbe4a1ed8	-0.19738328
195	0xbe5f0be5	-0.21781881
196	0xbea99092	-0.3311811
197	0xbe13db19	-0.14439048
198	0xbeeac46c	-0.45852983
199	0xbe55385a	-0.20822278
200	0x3e4b55eb	0.19856994
201	0x3e195688	0.14974415
202	0xbe442c3a	-0.19157496
203	0xbeb3f15e	-0.35145086
204	0x3e058658	0.1303953
205	0x3e31cbb2	0.1736286
206	0xbe818ef6	-0.25304383
207	0x3e593b56	0.21214041
208	0x3ede69f3	0.43440208
209	0x3d7f4e9c	0.062330827
210	0xbe966cc1	-0.29379848
211	0xbef75591	-0.4830747
212	0xbec248a0	-0.37946033
213	0x3f1d6c1c	0.61493087
214	0xbd8f3c6f	-0.06993949
215	0xbebd45ec	-0.3696741
216	0xbf0ae998	-0.54262686
217	0x3f018971	0.50600344
218	0x3ef5b8ef	0.47992656
219	0x3ec82121	0.39087775
220	0xbeda1a4e	-0.42598194
221	0x3efc3a8f	0.49263427
222	0xbe74f49e	-0.23921439
223	0x3e7b68ab	0.24551646
224	0xbc99937f	-0.01874709
225	0x3e44a09d	0.19201894
226	0x3e5e4cfc	0.21709055
227	0xbe89b400	-0.26895142
228	0xbe801cb4	-0.250219
229	0xbf1176b7	-0.5682177
230	0xbdc56d20	-0.096399546
231	0xbe512f77	-0.20428263
232	0x3dcbd1dc	0.09952137
233	0x3f02644b	0.50934285
234	0x3eaf18ab	0.34198508
235	0x3f2919cc	0.6605499
236	0x3eba6893	0.3640791
237	0x3e0f9be9	0.14024319
238	0x3e32b949	0.17453493
239	0xbe08d241	-0.13361456
240	0xbeb1fb6e	-0.34762138
241	0xbdff8e8f	-0.12478363
242	0x3dca0631	0.09864462
243	0xbf0cd153	-0.55006903
244	0xbc9972f8	-0.01873158
245	0xbf2d009c	-0.67579055
246	0xbf09695b	-0.53676385
247	0x3ed36334	0.41286623
248	0xbf028a82	-0.50992596
249	0x3f0b7609	0.5447698
250	0x3e789983	0.2427731
251	0x3de9e0e5	0.11419848
252	0x3f22eb01	0.6363984
253	0xbdb4dbac	-0.088309616
254	0x3e417308	0.18891537
255	0xbe9402f4	-0.28908503

network_body._body_endoder.seq_layers.0.bias f4 [256]
0	0xbe19387d	-0.14962955
1	0x3d816946	0.063189074
2	0xbd013e0d	-0.031553317
3	0xbb86265f	-0.0040939297
4	0xbc991665	-0.018687436
5	0x3d2b5ac3	0.041834604
6	0x3c2f373c	0.010694321
7	0xbc2bc998	-0.010485075
8	0x3d82ecd3	0.06392827
9	0xbd15be89	-0.03655866
10	0xbbdff301	-0.0068343882
11	0x3cfd2df4	0.030905701
12	0x3b71458e	0.003681514
13	0x3d0441a9	0.03228918
14	0x3d96561d	0.073406436
15	0xbd4f6e27	-0.05064216
16	0x3d18814e	0.03723269
17	0xbc567b6b	-0.013090949
18	0x3c802887	0.015644325
19	0x3db94815	0.09046952
20	0xbb8d83f1	-0.004318707
21	0x3cafaf96	0.02144603
22	0x3d078685	0.033087272
23	0xbdd4f808	-0.10398871
24	0x3bab145f	0.0052209343
25	0xbcdac1ea	-0.026703794
26	0x3bd0ca8f	0.006371803
27	0xbca82518	-0.0205255
28	0x3cee7534	0.029108621
29	0x3da52b41	0.08064891
30	0x3d83e57a	0.064402536
31	0x3c51845a	0.012787903
32	0x3dfc0f5a	0.123076156
33	0x3dfacaa0	0.12245679
34	0xbbf2bb0b	-0.007407551
35	0x3d144e59	0.03620753
36	0xbb152ea2	-0.002276339
37	0x3c19f5a3	0.009396943
38	0x3d39fa88	0.04540494
39	0xbc6112d0	-0.013737395
40	0x3d01b903	0.03167058
41	0x3dd62894	0.104569584
42	0x3bb62dc4	0.005559655
43	0xbc4d80fc	-0.012542959
44	0x3cec385b	0.028835466
45	0x3d297243	0.041368734
46	0xbc9592e2	-0.018258516
47	0x3adc3f41	0.0016803519
48	0xbbd35e74	-0.0064504687
49	0xbcb1e236	-0.021714311
50	0x3bf802a5	0.0075686746
51	0xbc085001	-0.008319856
52	0x3ba23d0b	0.0049511245
53	0xbc06f7ea	-0.008237818
54	0x3dabe61c	0.08393499
55	0xbbaf0aff	-0.005341887
56	0xbc8f1b1d	-0.017468983
57	0xbd8ec913	-0.069719456
58	0x3d43cdce	0.047803693
59	0xbc43aca4	-0.011943016
60	0xbc32d305	-0.010914569
61	0xbc10ec66	-0.008845424
62	0x3d5f8f04	0.05457975
63	0x3d1310b0	0.035904586
64	0xbcf97785	-0.0304525
65	0x3c5f52bc	0.013630565
66	0xbd9a82ee	-0.07544504
67	0x3c3912b5	0.011295964
68	0x3ae8fbdf	0.0017775259
69	0x3b2cb102	0.0026350622
70	0xbc9ee6ff	-0.019397257
71	0xbc0db867	-0.008649922
72	0xbd34c8da	-0.04413686
73	0xbccb710c	-0.024834178
74	0xbcdc5a78	-0.026898608
75	0xbd050623	-0.032476556
76	0x3d20f809	0.039299045
77	0xbd222b0e	-0.03959184
78	0x3b5f6afa	0.0034090863
79	0x3c3bceb8	0.01146286
80	0xbd171af9	-0.036890958
81	0x3d5863b3	0.052829456
82	0xbccdac54	-0.025106587
83	0x3a9def69	0.0012049499
84	0x3badd04e	0.005304373
85	0xbb2bf8fa	-0.002624093
86	0xbc114265	-0.008865927
87	0xbba72a51	-0.00510148
88	0x3c868708	0.01642181
89	0xbc815696	-0.015788358
90	0xbcf6f9e4	-0.030148454
91	0x3d909f1f	0.070616
92	0xbcad2479	-0.021135556
93	0xbab81ef0	-0.0014047306
94	0x3d0d60b8	0.034516066
95	0xbd2c4f66	-0.042067908
96	0x3d4530a7	0.0481421
97	0x3ce761a3	0.028244799
98	0xbca640cb	-0.020294568
99	0x3cbf305d	0.023338491
100	0x3d96c453	0.073616646
101	0x3daf74fd	0.085672356
102	0xbc7517c0	-0.014959276
103	0xbd6ba439	-0.05752966
104	0x3ca02fcc	0.019554041
105	0x3b99dfe0	0.0046958774
106	0xbce5825f	-0.028016267
107	0xbc58d4f8	-0.013234369
108	0xbbcbd63d	-0.0062206076
109	0x3d6e26fb	0.058142643
110	0x3c89f5a9	0.016840773
111	0x3ccbf61d	0.02489763
112	0xbc169ee8	-0.00919316
113	0x3d4fc59e	0.05072557
114	0x3d5adc57	0.05343279
115	0x3c3b5fe1	0.0114364335
116	0x3cce2bb7	0.02516733
117	0xbc45340d	-0.012036336
118	0xbb14a0ac	-0.0022678776
119	0x3c91910e	0.017769363
120	0xbbd74e18	-0.006570589
121	0x3e66d9a9	0.22543968
122	0x3c68f101	0.014217616
123	0xbc4e5592	-0.012593644
124	0xbc6299b0	-0.013830587
125	0x3cd92c65	0.026510427
126	0xbd075ab8	-0.0330455
127	0x3c2cd888	0.010549672
128	0x3b139025	0.0022516337
129	0xbd14adb7	-0.03629848
130	0xbb9ac74f	-0.0047234665
131	0x3e068ffb	0.13140862
132	0x3cdc2df6	0.026877385
133	0x3d24cc4e	0.040233903
134	0x3b471ae3	0.0030381016
135	0x3cfbde45	0.030745635
136	0x3c0b3698	0.008496903
137	0x3d715c7e	0.058926098
138	0xbca42349	-0.020036357
139	0xbcee7f6b	-0.029113492
140	0x3e210a0a	0.15726486
141	0x3ce3f915	0.027828733
142	0x3d1d8900	0.03846073
143	0x39e5c101	0.00043822083
144	0xbbf9c389	-0.0076221866
145	0xbd64cc80	-0.05585909
146	0xbcd178aa	-0.025570232
147	0xbcc33174	-0.023827292
148	0x3da9065f	0.08253168
149	0x3d32db7b	0.043666344
150	0xbc49b9b8	-0.012312345
151	0xbc6e9616	-0.01456215
152	0xbcae4e2c	-0.02127751
153	0xbd02ae1a	-0.031904317
154	0xbc4d6447	-0.012536115
155	0x3cf55fdd	0.029952938
156	0xbcca7e8e	-0.02471855
157	0xbc2f5720	-0.010701925
158	0x3d1f2ec4	0.03886296
159	0x3c16c2a8	0.009201683
160	0xbd19101e	-0.037368886
161	0x39d2ef37	0.0004023255
162	0xbd046ad9	-0.03232846
163	0x3d6d9f76	0.058013402
164	0x3cd9b58a	0.026575822
165	0xbd2e21e5	-0.042512793
166	0xbcee77fd	-0.02910995
167	0x3dd42ace	0.10359727
168	0x3d85b60e	0.06528865
169	0x3e097fcf	0.13427661
170	0x3cadc6c1	0.021212937
171	0x3d47b104	0.0487528
172	0xbc59e64d	-0.013299537
173	0x3c27dfad	0.0102462
174	0x3d1a851f	0.03772461
175	0xbbe4f312	-0.006986984
176	0xbc9129b9	-0.01772009
177	0x3b91a860	0.0044451207
178	0xbd43e468	-0.047825247
179	0x3dac3463	0.084084295
180	0xbd2e4d23	-0.042554032
181	0xbca1ec42	-0.019765977
182	0xbceced14	-0.028921641
183	0x3b209021	0.002449997
184	0x3d742c17	0.05961236
185	0x3db604fe	0.08887671
186	0x3d8ddba8	0.06926662
187	0x3c62d7ef	0.013845428
188	0xbc676466	-0.014123058
189	0x3c129efc	0.008949038
190	0x3dfe1973	0.12407198
191	0x3cbefd44	0.023314126
192	0xbb0f51d8	-0.002186885
193	0x3ccf2101	0.025284292
194	0x3cb9d7de	0.022685941
195	0xbd1283f3	-0.035770368
196	0xbcfb8327	-0.030702187
197	0xbcdbb5bc	-0.026820056
198	0xbd4230fd	-0.04741
199	0xbcd22538	-0.025652513
200	0x3b385c6d	0.0028131262
201	0xbb9389da	-0.004502517
202	0x3d51ca5d	0.05121838
203	0xbd703fd2	-0.058654614
204	0xbc2aee89	-0.010432848
205	0x3cc73bc6	0.024320494
206	0x3cc4fddd	0.024046833
207	0x3d2d71c5	0.042344827
208	0x3daac975	0.08339206
209	0xbb4cf8b9	-0.003127618
210	0x3d08fad2	0.033442326
211	0x3d147892	0.036247797
212	0x3d81e51e	0.06342529
213	0x3dc2fc73	0.09520807
214	0x3b99a8f0	0.0046893284
215	0x3dbf3719	0.09336681
216	0xbc023bdc	-0.007948842
217	0x3d14bb4a	0.036311425
218	0xbd878602	-0.06617357
219	0x3a8968c5	0.0010483494
220	0x3d97d41f	0.07413506
221	0xbd279ea1	-0.040922765
222	0xbcbf12c8	-0.023324385
223	0xbc51ef02	-0.012813332
224	0xbb3fbef3	-0.0029258102
225	0xbc87cb11	-0.016576322
226	0x3c86fd70	0.01647827
227	0xbcc112da	-0.02356856
228	0x3d0e819c	0.034791574
229	0xbce939b3	-0.028469896
230	0x3da6865b	0.08131095
231	0xbc8c21e4	-0.017106004
232	0x3d67f7a1	0.05663264
233	0xbcc54ec7	-0.024085416
234	0x3cf825d8	0.030291483
235	0x3c8c9a4a	0.017163415
236	0xbc64bc12	-0.013960855
237	0x3e075beb	0.13218658
238	0xbc35d2fa	-0.011097664
239	0x3d4a0aca	0.049326696
240	0x3d16c3b6	0.03680774
241	0x3cca65b3	0.024706697
242	0x3cb6043d	0.022218818
243	0x3c9e3b6c	0.019315444
244	0x3da1e1b1	0.07904375
245	0x3d887220	0.066623926
246	0xbda7e7a5	-0.081984796
247	0xbd189446	-0.03725078
248	0xbc690641	-0.014222682
249	0x3dcb1700	0.09916496
250	0xbce5afe4	-0.028037973
251	0xbd246092	-0.04013116
252	0x3d49ce07	0.04926875
253	0x3dcd4595	0.10023037
254	0xbc287cec	-0.01028369
255	0xbc0d081a	-0.008607889

network_body._body_endoder.seq_layers.2.weight f4 [256, 256]
0	0x3d8353e9	0.06412489
1	0xbdf68b8b	-0.120383345
2	0xbe0a8242	-0.13526252
3	0xbda3add2	-0.07992138
4	0xbda38a03	-0.07985308
5	0x3de5f88c	0.11229047
6	0xbe27bc17	-0.16380344
7	0xbdd7fd03	-0.10546305
8	0xbe05db16	-0.13071856
9	0x3d820c41	0.063499935
10	0xbbb2a3c5	-0.0054516518
11	0xbd306c1e	-0.04307186
12	0x3ce35575	0.02775071
13	0xbddfd9d2	-0.10930218
14	0xbe3b7185	-0.18305023
15	0x3e02b503	0.12764363
16	0x3c5fad98	0.013652228
17	0xbcd077ad	-0.02544769
18	0xbc35f002	-0.011104586
19	0xbdc165f9	-0.09443278
20	0xbce3e70a	-0.027820129
21	0x3dd57fd4	0.10424772
22	0x3cdd5bd5	0.027021328
23	0x3e0f1c18	0.1397556
24	0xbdf87382	-0.12131406
25	0xbcdc0696	-0.02685861
26	0xbc22feee	-0.009948475
27	0xbd25dd24	-0.0404941
28	0x3dd27472	0.102761164
29	0xbdc26f29	-0.09493858
30	0xbdf65491	-0.120278485
31	0x3d9dd0f1	0.07705868
32	0xbe8487c9	-0.25884846
33	0xbe52ca5e	-0.2058501
34	0xbe494fc9	-0.19659342
35	0x3cb54350	0.022126824
36	0xbc8bbd6e	-0.0170581
37	0xbe148916	-0.14505419
38	0xbe1148e8	-0.14187968
39	0xbda28ce3	-0.07937028
40	0x3d46188d	0.048363257
41	0x3e30607a	0.17224303
42	0xbd0ed50b	-0.034871142
43	0xbe37aa7b	-0.17936127
44	0xbd1ae2e4	-0.037814036
45	0xbdb203c9	-0.08692128
46	0x3cb4f562	0.022089664
47	0x3ddc596c	0.10759243
48	0xbde862f8	-0.11347002
49	0xbdb281bb	-0.087161504
50	0xbd2e70dc	-0.0425881
51	0x3c587178	0.013210647
52	0xbe1e8de4	-0.15483814
53	0xbe299937	-0.16562353
54	0xbd1fcf7f	-0.039016243
55	0xbe4f0878	-0.20218074
56	0x3b2a7fa2	0.0026016016
57	0xbd8f3f48	-0.06994492
58	0xbdba2267	-0.09088593
59	0x3d421d44	0.04739119
60	0xbd9dba84	-0.07701591
61	0x3c3fcd36	0.011706641
62	0x3d757e8d	0.05993514
63	0xbc31510b	-0.010822545
64	0x3c96ef20	0.01842457
65	0x3db8152b	0.089884125
66	0xbdc9b729	-0.09849388
67	0xbb1e0d3a	-0.002411677
68	0x3c28fcb6	0.010314157
69	0xbd111080	-0.035416126
70	0xbd4416a3	-0.04787315
71	0xbd1ad142	-0.03779722
72	0x3de66883	0.11250403
73	0x3d2797ea	0.04091636
74	0xbd4d3aa7	-0.050104763
75	0xbdad434a	-0.084601
76	0xbe670c54	-0.22563297
77	0xbd8a369b	-0.067486964
78	0xbe268051	-0.16259886
79	0x3dd1e54d	0.10248814
80	0xbdb0f131	-0.086397536
81	0xbe3e6200	-0.18592072
82	0xbcc158aa	-0.023601849
83	0xbdc71c32	-0.09722175
84	0xbdf3f76a	-0.11912425
85	0xbcbad2d2	-0.022805605
86	0x3d88a4bd	0.06672046
87	0xbd9c6668	-0.0763672
88	0xbd59584e	-0.05306273
89	0x3d973267	0.0738266
90	0x3ded63c7	0.11591297
91	0x3d7d7ad2	0.06188471
92	0xbddab21f	-0.10678505
93	0x3dcced57	0.100062065
94	0xbe172105	-0.1475869
95	0xbd888960	-0.06666827
96	0xbcf7eb02	-0.030263428
97	0xbe1c52f0	-0.15266013
98	0x3ceb4d12	0.028723273
99	0xbd44636e	-0.047946386
100	0xbde6be19	-0.11266727
101	0xbe0f233d	-0.13978286
102	0xbcd48e63	-0.025946802
103	0xbd0ed06e	-0.034866743
104	0x3d007739	0.0313637
105	0x3cf277d6	0.029598158
106	0xbdba1843	-0.09086659
107	0xbde60588	-0.11231524
108	0xbd9ec4ae	-0.077523574
109	0xbe4b3569	-0.19844593
110	0xbca0c46d	-0.019624913
111	0xbbd7b6f1	-0.0065830876
112	0x3ddb79bc	0.10716578
113	0xbdab361a	-0.083599284
114	0xbd9b604d	-0.07586727
115	0xbe5a0737	-0.21291815
116	0xbd530b42	-0.05152441
117	0xbdcd6aae	-0.10030113
118	0xbdafc1d1	-0.085818894
119	0xbcd03c1c	-0.025419287
120	0xbd287523	-0.041127335
121	0xbd649691	-0.055807654
122	0xbcb172b0	-0.021661133
123	0xbdb1c335	-0.08679811
124	0xbd5375cd	-0.051626015
125	0xbc8c2b7c	-0.017110579
126	0x3e0b8f80	0.1362896
127	0xbcbd0828	-0.023075178
128	0xbd8e31c8	-0.06943089
129	0xbe066752	-0.13125351
130	0xbe34010f	-0.17578529
131	0xbdbbeab4	-0.091756254
132	0xbc619a05	-0.013769631
133	0x3d56d03c	0.05244468
134	0xbdf92aaa	-0.12166341
135	0xbdfeec27	-0.12447386
136	0xbd6728e8	-0.056435496
137	0xbd427ce7	-0.047482397
138	0x3a9c326b	0.0011916881
139	0xbd2789f8	-0.04090306
140	0xbd854230	-0.06506765
141	0xbe18a6ed	-0.14907427
142	0xbe06d19b	-0.13165896
143	0xbdb58970	-0.08864105
144	0x3d3674d5	0.044545013
145	0xbd2dc592	-0.042424746
146	0xbd83b8c6	-0.06431727
147	0xbde8211c	-0.1133444
148	0xbc7c7a8a	-0.015410075
149	0xbe0ce6ca	-0.13759914
150	0xbda81422	-0.08206965
151	0x3d28760d	0.041128207
152	0xbc81da04	-0.015851028
153	0x3e012c09	0.12614454
154	0xbd9a4f1c	-0.0753462
155	0xbca5b731	-0.020228954
156	0xbb7f7c57	-0.0038984024
157	0x3c124704	0.008928064
158	0xbdfe2321	-0.12409044
159	0xbd9d18e5	-0.07670764
160	0x3d8aa659	0.067700095
161	0xbdc030dd	-0.0938432
162	0x3dd72186	0.10504441
163	0xbd959e4f	-0.073055856
164	0xbd8c1a5c	-0.06840965
165	0x3d06df38	0.03292772
166	0xbda93ce2	-0.082635656
167	0x3d84b4c3	0.0647979
168	0xbce01822	-0.027355257
169	0xbbd9c5e7	-0.0066459063
170	0xbd298350	-0.041384995
171	0xbe181144	-0.14850336
172	0x3d8c6b77	0.06856435
173	0x3d8280a2	0.06372191
174	0xbdecf2ef	-0.115697734
175	0x3d790083	0.060791504
176	0xbdf67593	-0.12034144
177	0x3bcb2196	0.006199072
178	0x3c5c2af8	0.013437979
179	0xbcb3616a	-0.021897037
180	0xbd98d5f6	-0.07462685
181	0x3e1c915d	0.15289827
182	0xbd575c80	-0.05257845
183	0x3d8870c4	0.06662133
184	0xbe5a0d1b	-0.21294062
185	0x3c92a9af	0.017903177
186	0x3ca6162d	0.020274246
187	0xbd54a5fa	-0.0519161
188	0x3d63ec3c	0.055645213
189	0xbd132e23	-0.03593267
190	0xbda3d74b	-0.08000048
191	0x3ce8890a	0.028385658
192	0xbdaa3b9f	-0.08312153
193	0xbddc5fac	-0.107604355
194	0xbdabb3f7	-0.08383935
195	0x3dd06531	0.10175551
196	0xbdd78194	-0.10522762
197	0x3c8f4b7e	0.017492052
198	0xbd6ffa79	-0.05858848
199	0x3d68cdab	0.056836765
200	0xbd15ad56	-0.03654226
201	0xbb3863f9	-0.002813576
202	0x3d327213	0.04356582
203	0xbe1f0064	-0.15527493
204	0xbe10e3dd	-0.14149423
205	0xbbd41f7f	-0.006473481
206	0xbb259f22	-0.0025271853
207	0x3dff0808	0.12452704
208	0xbdc6fe85	-0.097165145
209	0xba9c6109	-0.0011930774
210	0x3d84c68a	0.06483181
211	0x3b959173	0.004564458
212	0x3d2e7a50	0.042597115
213	0x3cb74412	0.022371326
214	0xbdb1266c	-0.086499065
215	0xbe050954	-0.1299184
216	0xbe04360e	-0.12911245
217	0xbd42c0ac	-0.047547027
218	0xbd743f49	-0.059630666
219	0xbdd8357d	-0.10557077
220	0xbd4d1b17	-0.050074663
221	0xbdb6f9a7	-0.08934336
222	0xbe025344	-0.12727076
223	0xbd5dee7d	-0.05418252
224	0xbdb989ea	-0.09059508
225	0x3bd69aac	0.0065492
226	0xbd252390	-0.04031712
227	0x3b684d89	0.0035446605
228	0xbd4e2149	-0.050324712
229	0x3d16b0f7	0.03678986
230	0xbd930846	-0.071793124
231	0xbd313de4	-0.043271914
232	0x3d2ce0be	0.04220652
233	0xbe205de4	-0.15660816
234	0xbe1b7cee	-0.15184376
235	0x3d2fdd91	0.04293591
236	0x3cfba4e0	0.030718267
237	0xbe2a57e5	-0.16635092
238	0xbdb87789	-0.090071745
239	0xbd3c7ef2	-0.046019502
240	0xbd97e47c	-0.07416627
241	0xbd890a8e	-0.06691466
242	0xbd1c8f0d	-0.03822236
243	0x3d5adc68	0.053432852
244	0xbe25fce8	-0.16209757
245	0xbb14ed61	-0.0022724497
246	0x3d789078	0.06068465
247	0xbde40df3	-0.11135473
248	0x3b37239b	0.0027944806
249	0xbda91f13	-0.0825788
250	0x3d1e1562	0.03859461
251	0xbbea27a8	-0.0071458407
252	0x3dc52cd3	0.0962769
253	0xbb99f709	-0.0046986383
254	0x3d8bc33e	0.06824349
255	0xbdabcfc0	-0.083892345

network_body._body_endoder.seq_layers.2.bias f4 [256]
0	0xbd8a4f1a	-0.06753369
1	0xbd1a3288	-0.037645847
2	0xbd3a0a71	-0.045420114
3	0x3d8179a3	0.063220285
4	0xbd8a33bb	-0.06748148
5	0x3d0c3dda	0.034238674
6	0xbd3a33da	-0.045459606
7	0x3b622031	0.003450405
8	0xbdc00ebe	-0.09377812
9	0x3d0d93cb	0.034564774
10	0xbd8ee718	-0.069776714
11	0xbdbe5db8	-0.09295219
12	0xbd6a5933	-0.057213973
13	0xbd130eb6	-0.0359027
14	0xbcf2f8a2	-0.029659573
15	0x3ce759a2	0.028240982
16	0x3c0d6d99	0.008632087
17	0xbdc420ac	-0.09576544
18	0xbcce207d	-0.025161976
19	0xbc0955e1	-0.0083822915
20	0xbdf5880a	-0.11988838
21	0xbcc5ac7b	-0.024130097
22	0x3d12d0f7	0.035843816
23	0xbd44ee85	-0.048079032
24	0xbd4be72b	-0.049781006
25	0x3d19d0d0	0.037552655
26	0x3d852c6f	0.06502616
27	0xbcee72ee	-0.029107537
28	0x3c2716c3	0.010198298
29	0xbd5f34fb	-0.054493885
30	0xbd6895dc	-0.056783542
31	0xbda20999	-0.07911987
32	0x3cac9ba3	0.021070307
33	0xbd15053e	-0.036381952
34	0x3d366537	0.04453012
35	0xbd66aecc	-0.056319043
36	0xbd3bf4d8	-0.045887798
37	0xbd8fb3e5	-0.07016734
38	0x3cd6a94e	0.026203778
39	0xbca1f137	-0.01976834
40	0xbd9b292a	-0.07576211
41	0xbcde6d1d	-0.027151639
42	0x3b07bb92	0.0020711166
43	0xbbec94e0	-0.0072198957
44	0xbd83c721	-0.06434465
45	0x3d6d522e	0.0579397
46	0xbcc2d969	-0.02378531
47	0xbd0f9973	-0.03505845
48	0xbd6777e3	-0.056510817
49	0xbd9076dd	-0.07053921
50	0xbd7a3ece	-0.06109505
51	0xbdad673e	-0.084669575
52	0x3cd2af11	0.025718244
53	0x3cbc7047	0.023002757
54	0xbcdd45e4	-0.027010866
55	0xbd9a23f8	-0.07526392
56	0x3b77450d	0.0037730366
57	0xbd0b45a9	-0.03400198
58	0xbd666ef8	-0.05625817
59	0xbd7c49d5	-0.06159385
60	0xbdd43bb5	-0.10362951
61	0xbda74dc2	-0.08169128
62	0x3bfff038	0.0078106187
63	0xbd556af9	-0.05210397
64	0x3bef4eda	0.007303101
65	0xbda828c1	-0.08210898
66	0x3cd27d0d	0.025694394
67	0xbc2a494c	-0.010393452
68	0xbd3e2d9e	-0.046430223
69	0xbc93b78f	-0.018031863
70	0xbd2eea70	-0.042704046
71	0x3cdb97a7	0.026805712
72	0xbcaa8a1d	-0.02081781
73	0x3caacec0	0.02085054
74	0xbd9035ba	-0.070414975
75	0xbd6e2b78	-0.058146924
76	0xbd9874b2	-0.07444133
77	0xbd16f0b5	-0.03685065
78	0xbb0dcf91	-0.0021638612
79	0xbc8eb8f0	-0.01742217
80	0xbc00a4e6	-0.007851815
81	0x3d659b41	0.056056265
82	0x3a83578b	0.0010020597
83	0x3b493b0d	0.0030705363
84	0xbde0a0d5	-0.10968176
85	0xbd2f6222	-0.042818196
86	0xbcf88353	-0.030336058
87	0xbbb0a9f9	-0.005391356
88	0xbd9ed74d	-0.07755909
89	0xbdaf99fc	-0.08574292
90	0x3c6fef02	0.014644386
91	0x3d0e8f33	0.034804534
92	0xbcc19f97	-0.023635669
93	0xbc89df94	-0.016830243
94	0x3d846435	0.064644255
95	0x3d0aa2ff	0.03384685
96	0x3c8135e4	0.015772767
97	0x3c804738	0.01565896
98	0x3c00ef29	0.00786952
99	0xbcff2cc3	-0.031149274
100	0xbd2a7e36	-0.04162427
101	0xbb7b3983	-0.003833384
102	0xbd984ee6	-0.07436924
103	0xbd3e4a98	-0.046457857
104	0xbd85f090	-0.06540024
105	0x3c4cf9b6	0.012510708
106	0xbb4cc587	-0.0031245665
107	0xbd8edf98	-0.06976241
108	0xbda03885	-0.0782328
109	0x3d505ced	0.05086987
110	0xbd2290c7	-0.03968885
111	0xbcb07145	-0.021538386
112	0xbceaf63d	-0.028681869
113	0xbd4e5f42	-0.050383814
114	0xbcaa96ab	-0.020823797
115	0xbcc8cc07	-0.02451135
116	0xbca59003	-0.020210272
117	0x3c3f9e1a	0.011695409
118	0xbdb626bc	-0.08894107
119	0xbd5bf60b	-0.05370144
120	0xbd24afab	-0.040206593
121	0xbd83df6a	-0.06439097
122	0x3d2320bb	0.039826136
123	0xbda5a591	-0.0808822
124	0xbdaee439	-0.08539624
125	0xbd9727fd	-0.07380674
126	0xbbc8949d	-0.0061212317
127	0xbd5f0673	-0.05444951
128	0xbd025c55	-0.031826336
129	0xbbccfaef	-0.0062554996
130	0xbd4cd07c	-0.050003514
131	0xbd4639bb	-0.0483949
132	0x3c1ecbb4	0.009692121
133	0xbc8135ff	-0.015772818
134	0xbdbacd86	-0.09121232
135	0xbcb0245d	-0.021501714
136	0xbc5d6418	-0.013512634
137	0xbdc90bb0	-0.09816682
138	0xbc9a93bc	-0.018869273
139	0xbca08338	-0.01959382
140	0xbdaa4a63	-0.083149694
141	0xbd5e5f60	-0.054290175
142	0x3ba27e76	0.004958923
143	0xbdbbcfd4	-0.091704994
144	0x3d13f2db	0.036120277
145	0x3d51ab8b	0.051188987
146	0x3bd92a21	0.0066273366
147	0x3cc24a60	0.023717105
148	0xbce799f8	-0.02827166
149	0xbc9bb06c	-0.019005023
150	0x3cc32590	0.023821622
151	0xbd51de9f	-0.0512377
152	0xbd7b6a9e	-0.061380975
153	0xbdbaaca1	-0.091149576
154	0x3d96a810	0.07356274
155	0x3c9bb21a	0.019005824
156	0xbd67dee9	-0.056609068
157	0x3c5449d6	0.012957057
158	0xbd26eecd	-0.040755082
159	0xbdf693f0	-0.120399356
160	0x3d041880	0.032249928
161	0xbde4e440	-0.11176348
162	0xbd44fbda	-0.048091747
163	0xbd5e15ac	-0.054219887
164	0xbd6945d9	-0.056951378
165	0x3bd6fcdb	0.0065609044
166	0xbdafc397	-0.08582228
167	0xbc35308a	-0.011058936
168	0xbd82da52	-0.063892975
169	0xbcca12f9	-0.02466725
170	0xbc841647	-0.016123904
171	0xbd5ac186	-0.053407215
172	0xbd3ef597	-0.04662093
173	0x3d0cfe37	0.034422126
174	0xbbcce809	-0.0062532467
175	0xbddf6ea0	-0.10909772
176	0xbc9b5148	-0.018959656
177	0xbcfd8774	-0.030948378
178	0xbdb06231	-0.086124785
179	0xbb3c20a0	-0.002870597
180	0xbcb55274	-0.022134043
181	0x3d568d6e	0.05238097
182	0xbd9bab28	-0.07601005
183	0x3d4c6abb	0.049906474
184	0xbce064f7	-0.027391894
185	0x3c333b09	0.010939368
186	0xbda01a83	-0.07817557
187	0x3c1d12d1	0.009587006
188	0x3cc90137	0.024536712
189	0x3cf19296	0.029488843
190	0xbdb31c66	-0.08745651
191	0x3d067333	0.032824706
192	0x3b7e6088	0.0038814861
193	0xbe050cae	-0.12993118
194	0xbb81889d	-0.003953053
195	0xbdb70919	-0.08937282
196	0x3d62c4e8	0.055363566
197	0xbd470c6c	-0.04859583
198	0xbdb9dd68	-0.09075433
199	0xbc901b4d	-0.017591143
200	0xbd767df5	-0.060178716
201	0xbd0ffe3b	-0.035154562
202	0x3ccead2e	0.025229063
203	0x3c746130	0.014915749
204	0xbda80da0	-0.08205724
205	0x3c9c5685	0.019084224
206	0xbd3a063a	-0.045416094
207	0x38a78790	7.988431e-05
208	0x3d1222c6	0.035677694
209	0x3d09786d	0.033562113
210	0xbd210c2c	-0.03931825
211	0xbced53c0	-0.0289706
212	0xbdb2ed96	-0.08736722
213	0x3c8dde1f	0.01731783
214	0xbd5be36c	-0.053683683
215	0xbdce2a8f	-0.10066711
216	0xbd76f194	-0.06028898
217	0xbd3ee53f	-0.046605345
218	0x3d09dc75	0.03365751
219	0xbd240220	-0.04004109
220	0xbdd67b79	-0.10472769
221	0xbd2f759c	-0.04283677
222	0xbd70bc9a	-0.058773614
223	0xbd3e73ae	-0.04649704
224	0xbc95722d	-0.01824292
225	0xbd2382f6	-0.039919816
226	0xbd3dc98f	-0.0463348
227	0xbcda21e5	-0.02662749
228	0xbcc3fd20	-0.02392441
229	0xbc310f99	-0.010806941
230	0x3dad41d6	0.08459823
231	0xbd3160a9	-0.043305073
232	0x3d945868	0.07243425
233	0x3bae954a	0.0053278552
234	0xbda953a9	-0.0826791
235	0xbcd46260	-0.025925815
236	0x3cf5744c	0.029962681
237	0xbce9742b	-0.028497776
238	0xbd5709cf	-0.05249959
239	0xbd1f3b0f	-0.038874682
240	0xbd4fcb8c	-0.050731227
241	0xbd8ba128	-0.068178475
242	0xbc3f8f07	-0.011691815
243	0x3c8fddbe	0.01756179
244	0xbc97c789	-0.018527763
245	0xbd278703	-0.04090024
246	0xbde19283	-0.11014273
247	0x3d20ced9	0.039259765
248	0x3cc66c8d	0.024221683
249	0x3d92d988	0.07170397
250	0xbce2d3ba	-0.02768885
251	0xbc08d122	-0.008350642
252	0xbd2deb1a	-0.04246054
253	0xbd485fdd	-0.048919547
254	0xbdc3bd84	-0.095576316
255	0x3b2b3c2d	0.0026128397

action_model._continuous_distribution.log_sigma f4 [1, 3]
0	0xc0307627	-2.7572114
1	0xc0366e7d	-2.8504937
2	0xc070f065	-3.7646725

action_model._continuous_distribution.mu.weight f4 [3, 256]
0	0xbd49a6d2	-0.049231358
1	0x3aa82a02	0.0012829902
2	0xbab2beef	-0.0013637225
3	0x3e1d99f3	0.15390758
4	0xbb96defe	-0.0046042195
5	0x3d2f8798	0.04285392
6	0x3cca8a3e	0.024724122
7	0xbd508f42	-0.05091787
8	0xbcca4dbe	-0.024695273
9	0x3df45edf	0.11932158
10	0x3c943efc	0.01809644
11	0xbb006c36	-0.0019595749
12	0xbca67c07	-0.020322813
13	0xbe2c2a65	-0.16813047
14	0x3d7d447a	0.061832882
15	0xbc91f4dd	-0.017816955
16	0x3d6327e2	0.055457957
17	0xb9d92920	-0.00041420106
18	0xbc2ce393	-0.010552305
19	0x3db3d976	0.08781712
20	0x3b57fd08	0.0032957215
21	0xbc508bae	-0.012728615
22	0x3e01a598	0.12660825
23	0x3d7912fe	0.060809128
24	0xbd369fff	-0.044586178
25	0x3e2dff5c	0.16991943
26	0xbc9ca298	-0.0191205
27	0x3d508c2b	0.050914925
28	0x3dc13ad4	0.09435049
29	0xbbadcb42	-0.0053037712
30	0x3bed0f00	0.007234454
31	0xbd860444	-0.06543782
32	0xbde842e7	-0.113408856
33	0x390dc503	0.000135202
34	0xbe224865	-0.15847929
35	0xbd9e4745	-0.07728437
36	0x3abac50f	0.0014249402
37	0x3d038763	0.032111537
38	0x3dfa14f7	0.1221103
39	0x3db7dc4d	0.08977566
40	0xbd0ebda3	-0.03484882
41	0x3d87d807	0.06633001
42	0xb99eed9e	-0.00030313147
43	0xbde462ce	-0.11151658
44	0x3bbdf347	0.005796823
45	0xbe49bca1	-0.19700862
46	0x3d92212c	0.07135233
47	0xbd4bf3ed	-0.049793173
48	0x3c694176	0.0142367985
49	0xbb9ae452	-0.004726925
50	0x3c6503ee	0.013977988
51	0xbb3bbd61	-0.0028646814
52	0xbe0e64d1	-0.13905646
53	0x3d719e39	0.058988784
54	0xbd8b8693	-0.06812777
55	0xbc5b1b06	-0.013373142
56	0xbd226ed5	-0.03965648
57	0xbdeaa571	-0.11457337
58	0xbd13ef32	-0.036116786
59	0x3c273019	0.0102043385
60	0x394df856	0.00019642836
61	0x3bbdc48e	0.0057912534
62	0x3deeef5e	0.116667494
63	0xbc14a6f4	-0.009073008
64	0x3d826d5f	0.06368517
65	0xbad3da5f	-0.0016163102
66	0xbe1e6225	-0.15467127
67	0x3a518635	0.00079927157
68	0x3c43e7b4	0.011957098
69	0x3dc2b14d	0.09506474
70	0xbb378a5f	-0.002800606
71	0xbda7b122	-0.08188082
72	0xb9bf8aac	-0.00036533677
73	0xbe233107	-0.15936671
74	0x3bb86d0f	0.005628235
75	0x3c3a78aa	0.011381308
76	0xbc60d4c1	-0.0137225995
77	0x3d71288b	0.058876555
78	0xbadec04e	-0.0016994567
79	0x3a20e580	0.0006137714
80	0xb922a21c	-0.00015509914
81	0x3b5e4304	0.0033914456
82	0x3dc16fea	0.09445174
83	0x3df23ca1	0.1182797
84	0x3b3c8e91	0.00287715
85	0xbc8e6a3a	-0.017384637
86	0x3949ef1a	0.00019257926
87	0x3d9285ea	0.07154448
88	0xbad433a3	-0.0016189705
89	0x37f68fac	2.9392388e-05
90	0xbe00efa2	-0.12591413
91	0xbe26068e	-0.16213438
92	0x3cf3ec71	0.02977583
93	0xbdedb60a	-0.11606987
94	0xbe436110	-0.19079995
95	0xbdd8445c	-0.105599135
96	0x3de4b64a	0.111675814
97	0x3dda335f	0.106543295
98	0x3e115146	0.1419116
99	0x3d9fe80a	0.0780793
100	0xbcd32f4f	-0.025779394
101	0x3d17a264	0.037020102
102	0xbc49048b	-0.01226915
103	0x3b1e5439	0.0024159087
104	0x3c1f9a08	0.009741314
105	0xbc27fcd3	-0.010253149
106	0xbd9b207d	-0.07574556
107	0xbcceeac5	-0.025258431
108	0xbc3ffaa8	-0.011717476
109	0xbddc5540	-0.10758448
110	0xbd6913f7	-0.056903806
111	0xbc220373	-0.009888518
112	0xbd79d39c	-0.060992822
113	0xbd41964f	-0.047262486
114	0x3a502f2e	0.00079416006
115	0xbe2d11cf	-0.16901325
116	0xbdd35f8b	-0.10320958
117	0x3bf9f144	0.007627638
118	0xbc51f2e4	-0.012814257
119	0xbb245286	-0.0025073602
120	0xbdc50d34	-0.09621659
121	0x3d95a6c4	0.07307199
122	0xbdf30337	-0.118658476
123	0xbc086bfd	-0.008326528
124	0x3c076aa6	0.008265173
125	0xbbf93586	-0.0076052574
126	0x3c0b8370	0.008515224
127	0xbc136a4f	-0.008997514
128	0x3cd79c21	0.026319565
129	0xbd7aee3b	-0.06126235
130	0x3d851e39	0.06499905
131	0x3ce47139	0.02788602
132	0x39b5cb6c	0.0003467457
133	0xbd3a329f	-0.045458432
134	0xbc49b180	-0.012310386
135	0x3baa0ba9	0.0051893783
136	0x3d2c8d77	0.0421271
137	0xbc8c39ae	-0.017117348
138	0x3ca59f58	0.020217583
139	0x3d6b001f	0.057373162
140	0xbbe00ef7	-0.0068377214
141	0x3d4436a2	0.047903664
142	0x3e0a1359	0.13483943
143	0xba27fc4c	-0.00064081396
144	0x3cab3cbb	0.020902982
145	0xbc0124d0	-0.007882312
146	0xbe09216c	-0.13391656
147	0xbd7acfce	-0.061233334
148	0xbd1a3f70	-0.037658155
149	0xba7ecb64	-0.00097196386
150	0x3dcde85a	0.10054083
151	0xbac084fd	-0.0014688071
152	0xbd49210e	-0.04910379
153	0xbbacd8f3	-0.005274886
154	0x3e529e5c	0.20568222
155	0x3dc7f5fc	0.09763715
156	0xbb2a72af	-0.0026008298
157	0x3dbd8228	0.09253341
158	0x3c908f41	0.017646434
159	0xbb36d6e6	-0.0027899086
160	0x3e2c56f3	0.16830043
161	0x3b8d0b08	0.0043042935
162	0x3cf865f8	0.03032206
163	0x3b41cfe4	0.0029573375
164	0xbcc0ba24	-0.023526259
165	0x3dfbbaab	0.122914635
166	0xbcc0abb1	-0.023519369
167	0x3d15ab98	0.036540598
168	0x3a17ffa9	0.0005798289
169	0xbd2e2f0c	-0.042525336
170	0x3cca6585	0.024706611
171	0xbc5efac6	-0.013609594
172	0xbca01fb0	-0.01954636
173	0x3e462550	0.19350171
174	0xbdaef2eb	-0.08542427
175	0x3ac40c0c	0.0014957204
176	0x3c150c17	0.009097121
177	0xbd0ac1a7	-0.033876088
178	0xbc8a0c6f	-0.016851632
179	0x3dab0e3f	0.083523266
180	0x39bc8b81	0.00035962093
181	0x3e136108	0.14392483
182	0xbc59f4c3	-0.013302985
183	0x3ddc9692	0.107709065
184	0xb8aaae22	-8.1386665e-05
185	0xbda583d2	-0.08081783
186	0x3c0e5629	0.008687534
187	0xbe1ae54d	-0.15126534
188	0xbddf84bb	-0.10913988
189	0x3e067e3a	0.13134089
190	0xbc2cf07d	-0.010555384
191	0xbd0ab697	-0.033865537
192	0x39cc0a00	0.00038917363
193	0xbbc4c18d	-0.0060045184
194	0x3b49acad	0.0030773089
195	0x3bedd713	0.007258305
196	0xbe663cfb	-0.224842
197	0x3bf154f3	0.007364863
198	0xbaf7f716	-0.0018918242
199	0xbe0e4d6b	-0.1389672
200	0x3c938374	0.018007018
201	0xbc4f5969	-0.012655594
202	0x3e0aefc1	0.13568021
203	0x3bd4b6dc	0.006491525
204	0x3c0e71e4	0.008694146
205	0xbda9eaaa	-0.08296712
206	0x3cb37724	0.021907397
207	0x3dd5a1f5	0.104312815
208	0xbdfd09f1	-0.12355412
209	0xbdac5f4c	-0.08416614
210	0xbd918801	-0.07106019
211	0xbca14360	-0.019685447
212	0xbc699878	-0.014257543
213	0xbdb0d799	-0.08634872
214	0xbcb51659	-0.022105383
215	0xbbb1686c	-0.0054140594
216	0xbd8b08b5	-0.0678877
217	0xbd6e21e3	-0.058137786
218	0xbe21fcf0	-0.15819144
219	0x3bacb936	0.0052711023
220	0x388fb4b2	6.8524285e-05
221	0x3cee9576	0.029124003
222	0x3cf26e85	0.029593715
223	0xba016d40	-0.0004937239
224	0x3df146ca	0.1178108
225	0xbbe9c861	-0.0071344827
226	0x3ba0deb9	0.004909363
227	0xbd9f6f04	-0.077848464
228	0x3caa5f7f	0.02079749
229	0xb91f7c84	-0.00015209807
230	0xbe4a426d	-0.19751902
231	0xbd9eb711	-0.07749761
232	0x3e08df2f	0.13366388
233	0xbe161ff1	-0.14660622
234	0xbaf7e7e4	-0.0018913713
235	0x3a4fdc69	0.0007929267
236	0xbd303915	-0.043023188
237	0xbda2dcbf	-0.0795226
238	0x3d5baa16	0.053629003
239	0xbd11b169	-0.035569582
240	0xbc2b0be1	-0.010439844
241	0x3c28edd7	0.010310612
242	0x3d05b096	0.03263911
243	0xbe0c8dbe	-0.13725945
244	0x3c5b710a	0.01339365
245	0xbcfd2ec2	-0.030906085
246	0x3abe05c5	0.0014497569
247	0xbe00a918	-0.12564504
248	0x3e20d1bd	0.15705009
249	0xbe0e5707	-0.13900386
250	0x3da7b63b	0.081890546
251	0xbd1b44ee	-0.037907533
252	0x3c0ebec0	0.0087124705
253	0xbc023f15	-0.00794961
254	0xbc8ac222	-0.016938273
255	0x3d883ce2	0.066522375

action_model._continuous_distribution.mu.bias f4 [3]
0	0x3c5ae455	0.013360103
1	0x3ba627c7	0.00507066
2	0xbc464c14	-0.012103099

onnx::Div_51 f4 [9]
0	0x3f53d35f	0.827444
1	0x3f512afd	0.8170622
2	0x3f354499	0.70807797
3	0x3f34b554	0.70589185
4	0x3f34ca10	0.7062082
5	0x3f351cd4	0.70747113
6	0x3eff88d3	0.49909076
7	0x3f184680	0.59482574
8	0x3f14aff0	0.5808096
