TeamCode/src/main/ml/BODY.tflite (tflite, 297428 bytes, 13 tensors)

onnx_tf_prefix_/_continuous_distribution/Mul;StatefulPartitionedCall/onnx_tf_prefix_/_continuous_distribution/Mul f4 [2, 256]
000000 00 00 00 80 00 00 00 00 00 00 00 80 00 00 00 80
       -0.0 0.0 -0.0 -0.0
000010 00 00 00 80 00 00 00 00 00 00 00 00 00 00 00 00
       -0.0 0.0 0.0 0.0
000020 00 00 00 00 00 00 00 80 00 00 00 80 00 00 00 00
       0.0 -0.0 -0.0 0.0
000030 00 00 00 80 00 00 00 00 00 00 00 80 00 00 00 00
       -0.0 0.0 -0.0 0.0
000040 00 00 00 80 00 00 00 80 00 00 00 00 00 00 00 80
       -0.0 -0.0 0.0 -0.0
000050 00 00 00 80 00 00 00 80 00 00 00 80 00 00 00 80
       -0.0 -0.0 -0.0 -0.0
000060 00 00 00 80 00 00 00 80 00 00 00 80 00 00 00 00
       -0.0 -0.0 -0.0 0.0
000070 00 00 00 80 00 00 00 80 00 00 00 00 00 00 00 80
       -0.0 -0.0 0.0 -0.0
000080 00 00 00 00 00 00 00 80 00 00 00 00 00 00 00 00
       0.0 -0.0 0.0 0.0
000090 00 00 00 00 00 00 00 80 00 00 00 80 00 00 00 80
       0.0 -0.0 -0.0 -0.0
0000a0 00 00 00 80 00 00 00 80 00 00 00 80 00 00 00 80
       -0.0 -0.0 -0.0 -0.0
0000b0 00 00 00 80 00 00 00 80 00 00 00 80 00 00 00 80
       -0.0 -0.0 -0.0 -0.0
0000c0 00 00 00 00 00 00 00 80 00 00 00 80 00 00 00 80
       0.0 -0.0 -0.0 -0.0
0000d0 00 00 00 00 00 00 00 80 00 00 00 80 00 00 00 80
       0.0 -0.0 -0.0 -0.0
0000e0 00 00 00 00 00 00 00 80 00 00 00 80 00 00 00 80
       0.0 -0.0 -0.0 -0.0
0000f0 00 00 00 00 00 00 00 80 00 00 00 00 00 00 00 80
       0.0 -0.0 0.0 -0.0
000100 00 00 00 00 00 00 00 80 00 00 00 80 00 00 00 00
       0.0 -0.0 -0.0 0.0
000110 00 00 00 00 00 00 00 00 00 00 00 80 00 00 00 80
       0.0 0.0 -0.0 -0.0
000120 00 00 00 80 00 00 00 80 00 00 00 80 00 00 00 80
       -0.0 -0.0 -0.0 -0.0
000130 00 00 00 00 00 00 00 80 00 00 00 80 00 00 00 80
       0.0 -0.0 -0.0 -0.0
000140 00 00 00 00 00 00 00 80 00 00 00 80 00 00 00 00
       0.0 -0.0 -0.0 0.0
000150 00 00 00 00 00 00 00 80 00 00 00 80 00 00 00 00
       0.0 -0.0 -0.0 0.0
000160 00 00 00 00 00 00 00 00 00 00 00 00 00 00 00 00
       0.0 0.0 0.0 0.0
000170 00 00 00 80 00 00 00 80 00 00 00 80 00 00 00 00
       -0.0 -0.0 -0.0 0.0
000180 00 00 00 00 00 00 00 80 00 00 00 00 00 00 00 80
       0.0 -0.0 0.0 -0.0
000190 00 00 00 80 00 00 00 00 00 00 00 80 00 00 00 80
       -0.0 0.0 -0.0 -0.0
0001a0 00 00 00 80 00 00 00 00 00 00 00 80 00 00 00 00
       -0.0 0.0 -0.0 0.0
0001b0 00 00 00 00 00 00 00 80 00 00 00 80 00 00 00 80
       0.0 -0.0 -0.0 -0.0
0001c0 00 00 00 80 00 00 00 80 00 00 00 80 00 00 00 00
       -0.0 -0.0 -0.0 0.0
0001d0 00 00 00 80 00 00 00 00 00 00 00 80 00 00 00 80
       -0.0 0.0 -0.0 -0.0
0001e0 00 00 00 80 00 00 00 80 00 00 00 80 00 00 00 00
       -0.0 -0.0 -0.0 0.0
0001f0 00 00 00 80 00 00 00 80 00 00 00 00 00 00 00 00
       -0.0 -0.0 0.0 0.0
000200 00 00 00 80 00 00 00 80 00 00 00 00 00 00 00 80
       -0.0 -0.0 0.0 -0.0
000210 00 00 00 00 00 00 00 00 00 00 00 00 00 00 00 00
       0.0 0.0 0.0 0.0
000220 00 00 00 00 00 00 00 80 00 00 00 00 00 00 00 80
       0.0 -0.0 0.0 -0.0
000230 00 00 00 80 00 00 00 00 00 00 00 00 00 00 00 80
       -0.0 0.0 0.0 -0.0
000240 00 00 00 00 00 00 00 00 00 00 00 00 00 00 00 00
       0.0 0.0 0.0 0.0
000250 00 00 00 80 00 00 00 00 00 00 00 80 00 00 00 00
       -0.0 0.0 -0.0 0.0
000260 00 00 00 00 00 00 00 80 00 00 00 00 00 00 00 00
       0.0 -0.0 0.0 0.0
000270 00 00 00 80 00 00 00 80 00 00 00 00 00 00 00 00
       -0.0 -0.0 0.0 0.0
000280 00 00 00 80 00 00 00 80 00 00 00 80 00 00 00 00
       -0.0 -0.0 -0.0 0.0
000290 00 00 00 80 00 00 00 00 00 00 00 00 00 00 00 80
       -0.0 0.0 0.0 -0.0
0002a0 00 00 00 80 00 00 00 80 00 00 00 80 00 00 00 80
       -0.0 -0.0 -0.0 -0.0
0002b0 00 00 00 80 00 00 00 00 00 00 00 00 00 00 00 80
       -0.0 0.0 0.0 -0.0
0002c0 00 00 00 00 00 00 00 80 00 00 00 00 00 00 00 00
       0.0 -0.0 0.0 0.0
0002d0 00 00 00 00 00 00 00 80 00 00 00 80 00 00 00 00
       0.0 -0.0 -0.0 0.0
0002e0 00 00 00 80 00 00 00 80 00 00 00 80 00 00 00 00
       -0.0 -0.0 -0.0 0.0
0002f0 00 00 00 80 00 00 00 00 00 00 00 00 00 00 00 00
       -0.0 0.0 0.0 0.0
000300 00 00 00 80 00 00 00 80 00 00 00 00 00 00 00 80
       -0.0 -0.0 0.0 -0.0
000310 00 00 00 80 00 00 00 80 00 00 00 80 00 00 00 80
       -0.0 -0.0 -0.0 -0.0
000320 00 00 00 00 00 00 00 00 00 00 00 00 00 00 00 80
       0.0 0.0 0.0 -0.0
000330 00 00 00 80 00 00 00 80 00 00 00 80 00 00 00 80
       -0.0 -0.0 -0.0 -0.0
000340 00 00 00 00 00 00 00 80 00 00 00 00 00 00 00 80
       0.0 -0.0 0.0 -0.0
000350 00 00 00 80 00 00 00 80 00 00 00 80 00 00 00 00
       -0.0 -0.0 -0.0 0.0
000360 00 00 00 80 00 00 00 80 00 00 00 80 00 00 00 80
       -0.0 -0.0 -0.0 -0.0
000370 00 00 00 80 00 00 00 00 00 00 00 80 00 00 00 00
       -0.0 0.0 -0.0 0.0
000380 00 00 00 00 00 00 00 00 00 00 00 00 00 00 00 80
       0.0 0.0 0.0 -0.0
000390 00 00 00 80 00 00 00 80 00 00 00 80 00 00 00 80
       -0.0 -0.0 -0.0 -0.0
0003a0 00 00 00 00 00 00 00 00 00 00 00 00 00 00 00 80
       0.0 0.0 0.0 -0.0
0003b0 00 00 00 80 00 00 00 00 00 00 00 00 00 00 00 80
       -0.0 0.0 0.0 -0.0
0003c0 00 00 00 00 00 00 00 80 00 00 00 80 00 00 00 80
       0.0 -0.0 -0.0 -0.0
0003d0 00 00 00 00 00 00 00 80 00 00 00 00 00 00 00 80
       0.0 -0.0 0.0 -0.0
0003e0 00 00 00 80 00 00 00 00 00 00 00 80 00 00 00 00
       -0.0 0.0 -0.0 0.0
0003f0 00 00 00 80 00 00 00 00 00 00 00 00 00 00 00 00
       -0.0 0.0 0.0 0.0

onnx_tf_prefix_/_continuous_distribution/Mul;StatefulPartitionedCall/onnx_tf_prefix_/_continuous_distribution/Mul1 f4 [2]
000000 00 00 00 80 00 00 00 00
       -0.0 0.0

unknown_9 f4 [256]
000000 74 58 2a 3d 1c b3 a6 bd 9c 5d aa bc 55 c7 a3 3c
       0.04158826 -0.08139631 -0.02079659 0.01999251
000010 f6 98 c0 bc a8 35 0d 3d d6 99 21 3c 60 12 7c bb
       -0.023510437 0.034475 0.0098633375 -0.00384631
000020 91 e8 be 3c 17 07 af 3c 2e 34 1e bc 87 cb 36 3d
       0.023304256 0.021365685 -0.009655995 0.044627693
000030 c8 cd d3 bc af af 4f bc 0f 6e 0a bd 2a ec 95 3c
       -0.02585496 -0.012676164 -0.033796366 0.018301088
000040 5a b1 bc bb b3 6e 39 bd 69 a6 a6 3a 25 aa ae 3d
       -0.0057584466 -0.045271587 0.0012714389 0.08528546
000050 92 e4 04 3c cc 9d 11 3d 0e 00 08 3d a4 cf be bd
       0.008111136 0.035550877 0.033203177 -0.09316948
000060 ff 08 ae 3d cb 19 97 bc 0f d9 19 bd f8 4f 0f bd
       0.084978096 -0.018444916 -0.03756052 -0.034988374
000070 2f ce 73 3d 81 d2 24 3d 61 8d ff bb 9c 37 01 3d
       0.059522804 0.040239815 -0.007798836 0.031547174
000080 1d d1 49 3d e5 ad b3 3d 5e b2 1a bd 62 04 bf ba
       0.04927169 0.08773402 -0.03776776 -0.001457345
000090 97 7d f4 3c f8 45 73 bb f4 87 0a bd 8b 6e 4f bc
       0.029845042 -0.0037120562 -0.03382106 -0.012660633
0000a0 16 ce d3 bc 01 6c 87 bd 44 1a 96 3c ae 44 5b bd
       -0.025855105 -0.06612397 0.018323071 -0.053532295
0000b0 5f b6 92 3a 9a 10 a9 bc 6c 99 f6 bc 36 f2 dd bb
       0.0011193267 -0.020637799 -0.030102454 -0.0067732586
0000c0 f2 ae 0e bd 58 77 08 3c f7 0f 9c bc eb 2b 6a 3c
       -0.03483481 0.008329235 -0.019050581 0.014292697
0000d0 c7 11 76 bd 84 81 01 3d 20 fd b4 bc ef 82 13 3a
       -0.060075548 0.031617656 -0.022093356 0.00056271156
0000e0 46 75 44 3c 53 b1 af bd e1 d3 9c 3d 83 18 d4 b9
       0.011990851 -0.08578744 0.076576 -0.00040454054
0000f0 3c a9 a1 3a 95 4c 4f bd 2b ea 28 bc 42 0c 09 bd
       0.0012333761 -0.050610144 -0.010309736 -0.033458956
000100 e9 44 2a bd 14 13 0f bd dc b9 84 3c 7b d7 b9 3b
       -0.041569624 -0.034930304 0.016201906 0.005671439
000110 eb a7 e5 3c 5e 1e 7c 3d 33 02 1b bd 61 d5 fb bc
       0.028034171 0.061552398 -0.037843894 -0.030741395
000120 42 da d3 3c 16 6e b1 3a 9d 32 62 3d 95 67 f0 3a
       0.02586091 0.0013536836 0.05522405 0.0018341417
000130 69 cf eb bc 63 b9 18 bd cd bd 0b 3d 16 ec 10 3b
       -0.028785424 -0.037286174 0.034116555 0.0022113374
000140 f9 19 92 3d e9 1b 99 bd 2d 8a 0c 3e fc 9f af bc
       0.0713386 -0.074760266 0.13724585 -0.021438591
000150 4f 3f 7d bc a9 1f b6 bd 74 e6 a2 bd 80 12 64 bd
       -0.0154569885 -0.088927574 -0.07954112 -0.055681705
000160 40 92 82 bd be 26 7f bd ca 5c 5c bc f3 bc 91 3b
       -0.06375551 -0.062292807 -0.013449857 0.0044475733
000170 43 8d 37 bd b3 cb c1 3c 17 61 cb ba ad ec ef 3c
       -0.044812452 0.023656702 -0.0015516606 0.02928766
000180 0a 8f 65 bc 59 41 81 bc 8d 18 34 bc 79 52 43 bc
       -0.014011154 -0.01577823 -0.0109921815 -0.0119215185
000190 dd 5c 2b bd d8 15 df bc 7b 77 11 bd 76 73 41 3c
       -0.04183661 -0.027232096 -0.035514336 0.011807313
0001a0 6a 33 2f 3d 64 f0 dc bc e3 00 a3 3d c4 9f 0e bd
       0.04277364 -0.026970096 0.079591535 -0.034820333
0001b0 87 d8 23 bd d3 04 25 bd 3c 69 8e 3d 58 f0 2b 3d
       -0.04000142 -0.040287804 0.069536656 0.041977257
0001c0 83 63 25 bd 4d 60 96 bc 9d 53 34 bd 33 f6 56 bd
       -0.040378105 -0.018356467 -0.044025052 -0.052480888
0001d0 1d 40 70 bd fd 3b 6f bc 12 a0 ba 3a 5b 44 56 bd
       -0.058654893 -0.014601705 0.0014238378 -0.052311283
0001e0 6f 67 4d bd 26 3a 70 bd a0 1d 1e bd 0a af 13 3c
       -0.05014747 -0.058649205 -0.03860247 0.0090139005
0001f0 eb 21 96 3d 7b 09 f6 bb f1 94 1a 3b ba ff c4 3b
       0.07330688 -0.0075084544 0.002358731 0.0060119303
000200 7b 5f 3c 3d 62 0b 0f bd 11 4f cb ba a8 b5 95 3d
       0.045989495 -0.034922965 -0.0015511235 0.07310039
000210 b3 37 8b bd a4 cf 38 bb 61 96 a2 bd aa 99 c2 bc
       -0.06797733 -0.0028199935 -0.07938839 -0.023754913
000220 35 1f 14 3c e9 19 43 bc 90 ee 02 bc c9 51 c2 bc
       0.009040643 -0.011908033 -0.007991448 -0.023720639
000230 39 8e 55 bd 24 17 29 3d de b5 37 3d b6 45 25 bd
       -0.052137587 0.041281834 0.044851176 -0.040349685
000240 ba 63 48 bc 66 c8 cf 3a 0a a5 58 bd e8 6e 6d 3d
       -0.012230808 0.001585257 -0.05289177 0.057967097
000250 3c 23 b3 bb 36 f8 3b 3c f9 51 ac bc 32 91 cb bb
       -0.0054668467 0.011472752 -0.021035181 -0.006212377
000260 74 43 95 3c 1f 7e 1a bc e6 3c d8 3c a4 c2 04 bc
       0.01822064 -0.009429484 0.026396226 -0.008103047
000270 62 92 a6 bd 2d 60 f4 bc 56 ea 17 3d 28 b6 13 bd
       -0.08133389 -0.029831016 0.037088715 -0.03606239
000280 96 ce 40 bc c2 02 8f bc b8 b5 8a 3b b9 d3 30 bd
       -0.011768004 -0.01745737 0.0042330883 -0.043170664
000290 3b 47 62 bd b9 73 03 bd 20 66 81 3d d6 5f c7 3c
       -0.055243712 -0.032092784 0.06318307 0.02433769
0002a0 29 2f b3 3b a7 99 dd bb 19 63 57 bc df 8f 20 3d
       0.0054682684 -0.0067627016 -0.013146185 0.039199706
0002b0 0c bf 1a bd 8a 87 90 3c a2 70 a4 3c ac e9 29 bc
       -0.037779853 0.017642755 0.020073239 -0.010370653
0002c0 a0 43 85 ba fc 2c 44 bd 97 4d 8f bc 66 27 49 3d
       -0.0010167249 -0.047894463 -0.017493052 0.04910984
0002d0 63 bf e9 3c 61 b1 9d 3d e8 4c 87 3d 9b 5c db bb
       0.028533643 0.07699848 0.066064656 -0.006694389
0002e0 26 1c 5c 3d ab d1 99 3d 9e ae 7e 3c 78 be bf 3c
       0.053737782 0.07510694 0.015544562 0.023406252
0002f0 61 0b 39 bb 57 e7 2a 3d ed a7 e3 3c 1c d4 4b 3a
       -0.0028235542 0.04172453 0.027790034 0.0007775442
000300 3c 03 c7 bc d1 e8 99 3c 60 0e ef bb c8 c2 53 37
       -0.024293534 0.018787773 -0.007295415 1.2621931e-05
000310 07 6a 77 bc 02 32 9c bd aa c8 ce 3c 90 19 a4 3d
       -0.0151009625 -0.07626726 0.025242168 0.08012688
000320 92 77 c3 3c 8b 94 1e bd 96 cf 65 3d 2c 12 79 3d
       0.023860727 -0.03871588 0.056106173 0.060808346
000330 4d 58 1b 3c ea b8 9f 3d 89 02 8f bd 93 d4 99 3b
       0.009481502 0.077989414 -0.069829054 0.0046945303
000340 db 1b 1b bd b1 89 de 3d dd 20 65 3c 0c 64 ed bc
       -0.037868362 0.10866106 0.013984886 -0.02897837
000350 c5 71 e7 3c f4 f2 84 3d 63 37 da 3a 71 bd 7f bc
       0.028252492 0.06491652 0.0016648587 -0.015609131
000360 ea ba 7a 3c d0 50 9e bd 92 77 9b 3c 46 bf 65 3d
       0.015303353 -0.077302575 0.018977914 0.056090616
000370 2b 48 b6 3c 25 cc 0a 3d 1f 0b f8 bc 40 e3 ad bc
       0.02225121 0.033886094 -0.03027874 -0.021226525
000380 35 02 8e bc 37 20 75 bd 59 14 46 3d 17 f8 24 bd
       -0.017335037 -0.059845176 0.04835925 -0.04027566
000390 4b fc 2b 3d 5a 43 05 bd 26 b3 05 3d 02 13 e0 bc
       0.041988652 -0.032534935 0.032641552 -0.027352814
0003a0 08 d3 72 bc a1 04 4c bd 77 e7 b7 3d ef 9e 91 bc
       -0.014820822 -0.049809102 0.08979695 -0.01777598
0003b0 07 89 49 bc f6 e8 86 bd 5c 10 39 bd fa 93 04 3d
       -0.012300736 -0.065874025 -0.045181617 0.032367684
0003c0 7b 2d 3b bb 90 ea a9 3b bb c8 ea bb 39 94 46 bd
       -0.0028561044 0.0051854327 -0.007165042 -0.0484812
0003d0 90 2f b0 3d 9d bf 5f 3d ef 0c 01 bd 7c b5 4a bc
       0.08602822 0.054626096 -0.031506475 -0.012372371
0003e0 23 e0 71 bd fa 1d 06 bd 32 98 d0 bc 98 7d b9 bc
       -0.059051644 -0.03274343 -0.025463197 -0.022642896
0003f0 96 df d0 3b 76 6b d8 3c d9 22 93 3c 7e a4 36 3c
       0.00637431 0.026418429 0.017960953 0.011147616

unknown_7 f4 [256]
000000 11 93 86 bd e6 06 6a bc 55 d7 44 3b b9 b2 65 bd
       -0.065710194 -0.014283871 0.0030035574 -0.056078646
000010 8d 40 97 bd 40 1d 59 bd fd 2f 92 bd 18 a9 62 bc
       -0.07385359 -0.05300641 -0.07138059 -0.01383426
000020 bd 11 e9 bd 58 a0 0c 3d 38 67 cb bd 11 15 a2 bd
       -0.113803364 0.034332603 -0.09931797 -0.07914174
000030 d3 a4 99 bd f7 e4 d3 bd 1f 74 b2 3d df 7a 88 bd
       -0.07502141 -0.10346406 0.087135546 -0.06664061
000040 5c 99 e4 3c 4c cb 5e bd cd ec 0f bd 97 b8 6d bd
       0.027905159 -0.054393098 -0.03513794 -0.058037367
000050 81 27 0f be 4f 7f 6c bd 9e 39 f1 bc 12 ee a2 bd
       -0.13979913 -0.0577386 -0.02944642 -0.079555646
000060 78 d2 dd bd ff 20 6c bd f6 8a bd bd 09 57 75 bd
       -0.10831159 -0.057648655 -0.0925502 -0.059897456
000070 8a 86 4a bc 46 40 cb bd c6 2f 3b bd 78 a8 19 bd
       -0.012361178 -0.099243686 -0.045699857 -0.03751418
000080 9b 73 72 bd df 35 af bd 6c f1 4a 3c 58 9d 5a bd
       -0.05919228 -0.08555197 0.012386661 -0.05337271
000090 af c6 84 bd bb 88 a8 bd 6a 44 99 bd 68 31 ac bd
       -0.064832084 -0.08229204 -0.07483752 -0.08407861
0000a0 cc 62 3f bd 47 e3 1c 3d 73 ac aa bd 12 56 ae bd
       -0.04672508 0.038302686 -0.08333673 -0.0851251
0000b0 4d 2b 80 bd c7 ea 25 bd af 18 36 bd 67 34 ab bd
       -0.06258259 -0.040507104 -0.044457134 -0.08359604
0000c0 4e 37 0f be e5 d0 d6 bd 0e 7f 58 bd f8 f6 a0 bd
       -0.13985941 -0.10489062 -0.052855544 -0.078596056
0000d0 6a d7 5b bd 25 85 32 3b 64 72 30 be 77 2d 67 bd
       -0.05367223 0.0027240005 -0.17231137 -0.056439843
0000e0 ec 71 1d bc 56 11 ee ba 1f 1e 79 bd 5a 7a 45 bd
       -0.009609681 -0.0018163125 -0.06081974 -0.048212387
0000f0 1b b7 a5 bc c3 3c 27 bd 7f e4 4f bd 6e 15 c1 bd
       -0.020228913 -0.04082943 -0.05075502 -0.094279155
000100 21 56 26 bd 21 6c ec bc 18 c9 4e 3c e0 3a 74 bd
       -0.040609483 -0.028860154 0.012621187 -0.05962646
000110 95 7e 8a bd 7e ca 15 bc 60 86 78 3c 0d 00 03 bd
       -0.06762425 -0.009142516 0.015168756 -0.03198247
000120 8e 31 46 bd fa 99 d1 bc ee f0 e6 bd 75 29 a8 bd
       -0.048387103 -0.025586117 -0.112764224 -0.08211032
000130 d9 9b 33 be a4 35 f6 bc 27 9d 09 bc 28 fc 7f 3b
       -0.1753992 -0.030054875 -0.008399284 0.003906021
000140 fc 6f 82 bd b8 7e 6f bd 2c 30 5b bd c3 2d 4f bd
       -0.063690156 -0.058470458 -0.053512737 -0.05058075
000150 60 aa f6 bd 29 b7 dc bd 96 1e 93 bd e2 b1 3c bd
       -0.12044215 -0.107771225 -0.07183568 -0.04606808
000160 0d 76 28 3d df cf 9e bd 6c 05 58 bd 84 a7 f0 bd
       0.041128207 -0.07754492 -0.052739546 -0.11750701
000170 08 0f bc bb fe 92 50 be 15 39 f1 bc a6 68 00 be
       -0.0057390966 -0.20368573 -0.029446164 -0.1253992
000180 7f 61 54 bd e0 bb ee bd e3 f1 93 bd ad 8f c2 bd
       -0.051850792 -0.11656928 -0.072238706 -0.0950006
000190 35 d6 f1 bd 76 c2 04 be 18 23 38 bd fc c4 4c bc
       -0.11808435 -0.12964806 -0.044955343 -0.012498137
0001a0 b3 b5 47 bd c8 87 e2 bd 67 19 5b bd 43 9d e3 bd
       -0.048757266 -0.110610545 -0.053491022 -0.1111398
0001b0 3d c4 11 bd f1 ab 54 bd f8 79 3e bd 24 29 b1 bd
       -0.035587538 -0.05192179 -0.046503037 -0.08650425
0001c0 53 61 cb bc 0e 0d 41 bc 41 42 44 bd 4d a8 7d 3c
       -0.024826681 -0.011782898 -0.047914747 0.015482021
0001d0 6a 55 9e bc 2f 2b 91 bd 73 cc b3 bd 07 68 b4 bd
       -0.019327838 -0.07088315 -0.0877923 -0.08808904
0001e0 ae a6 d9 bd a7 03 d4 bc c8 e5 fb bc 37 f3 89 bc
       -0.10627495 -0.025880648 -0.030749217 -0.016839607
0001f0 65 ee b5 bd af 3b e3 bc 44 fa 70 bd a6 f5 51 bd
       -0.08883361 -0.02773842 -0.058832422 -0.05125966
000200 e5 f6 65 bd 49 f5 47 bc 6b 6e c8 bd 8b ed 8c bd
       -0.05614366 -0.012204477 -0.097866856 -0.06881245
000210 67 7a a5 bd 6e f3 01 be 55 eb 40 bd a4 c3 3d bc
       -0.08079987 -0.12690517 -0.04709943 -0.011582289
000220 cc 4c bf bd 68 52 9d bd 99 7d 0e bd f8 86 b1 bc
       -0.0934082 -0.07681733 -0.034787748 -0.021670803
000230 ea da 3b bd 8d 73 99 bd a6 04 f7 bd 38 4e bf bd
       -0.04586307 -0.07492743 -0.120614335 -0.09341091
000240 df 7a 3c bd 4b a5 16 be e9 b1 7e bd 7d 27 89 bd
       -0.046015617 -0.14711492 -0.062181387 -0.06696985
000250 b4 39 b2 bd 10 6d 73 bc 6f 30 75 bd c9 8e 39 bd
       -0.08702412 -0.0148575455 -0.059860643 -0.045302186
000260 a9 de a6 bd 2d af 7c bd eb 7e a9 bd a1 92 ac 3c
       -0.08147938 -0.0616905 -0.08276161 0.021066012
000270 32 4a ec bd bb cf bc bc 38 24 a1 bd ce 87 b9 bd
       -0.11537589 -0.023048272 -0.07868236 -0.09059106
000280 db 62 e5 3c b7 ee b0 bb 2b fb b9 bd 75 8a a1 bc
       0.02800124 -0.005399551 -0.090811096 -0.019719342
000290 a3 fc ad bd fd 28 88 bd ef 0b 7a bd 74 5e 6b bd
       -0.08495452 -0.06648443 -0.061046537 -0.057463124
0002a0 63 da ea bd bd 84 80 bd 8d ef a4 bd 11 83 aa bd
       -0.11467435 -0.06275318 -0.08053503 -0.0832578
0002b0 7f e7 b7 bd 50 2d 69 bd 0c e8 68 bd ec 62 eb bd
       -0.08979701 -0.05692798 -0.056861922 -0.11493477
0002c0 fb 3c 16 3d 04 27 1e be 88 10 f3 bc b9 75 a0 bd
       0.03667925 -0.15444571 -0.029670969 -0.07834954
0002d0 ef 1d 1a bd 74 07 8e bd 6c 44 09 be 58 c6 b3 bd
       -0.037626203 -0.06935015 -0.13405007 -0.087780654
0002e0 9b e1 b4 bd 96 4a 4d bd 5c a6 81 bd 87 c4 bc bd
       -0.08832093 -0.05011996 -0.06330559 -0.09217172
0002f0 44 9e db bc 2a 17 f2 bc 09 ec dc bd 74 01 db bd
       -0.026808865 -0.029552061 -0.10787208 -0.106936365
000300 d9 dd e8 bd d1 e4 8d bd 8b 1d 5f bd 57 c1 77 3b
       -0.11370439 -0.06928409 -0.054471534 0.0037804449
000310 a7 ff b8 3c e1 b6 e4 bd 51 66 ad bd a4 b8 0c bc
       0.022582842 -0.11167694 -0.08466781 -0.008588944
000320 21 65 40 bd 93 a0 ae bd 45 c9 b1 bd af 7a 58 bd
       -0.046971444 -0.08526721 -0.08680967 -0.052851375
000330 82 5e 75 bd c7 fb d4 bd 7b bd 01 bd 22 74 19 be
       -0.059904583 -0.10399585 -0.031674843 -0.14985707
000340 53 c6 80 bd 27 c2 c6 bc a6 4a 90 bc 0f 25 65 bd
       -0.06287827 -0.0242625 -0.01761372 -0.055943545
000350 91 78 80 bd 5d 3a 05 be 59 a1 1d bc 1b 00 c6 bd
       -0.06272996 -0.13010545 -0.009620988 -0.09667989
000360 e4 20 c2 bd 1f 87 a5 bc cf 9c c1 bd 20 72 42 bd
       -0.0947893 -0.020206032 -0.09453737 -0.04747212
000370 65 04 a0 bd d8 88 18 bd 3f 90 17 be 4b 8f 8c bd
       -0.07813338 -0.03723988 -0.1480112 -0.068632685
000380 4b 46 18 bc ef 86 0d bb ba b0 ba bd 6c cc fe bc
       -0.009294103 -0.002159532 -0.09115739 -0.031103335
000390 6c 84 dd 3a 3b 26 82 bc e3 90 cd 3b 47 47 eb bd
       0.0016900427 -0.01588737 0.0062733754 -0.114882044
0003a0 b2 84 a6 bd ab f1 36 bd 7a 8c 88 bc 7a fb a0 bd
       -0.08130778 -0.044664066 -0.016668547 -0.07860465
0003b0 33 d4 5c bd 8d 3a dc bd 50 cb 90 bd b0 b8 0a be
       -0.053913306 -0.10753355 -0.07070029 -0.13547015
0003c0 95 bd 24 ba b9 cf 04 be 99 32 9f bd fc 1d a9 bd
       -0.00062843534 -0.12969865 -0.077733226 -0.08257672
0003d0 f5 41 ff bd 86 af bb bd 86 b9 c7 bc a1 61 82 bd
       -0.12463752 -0.09164338 -0.024380457 -0.063662775
0003e0 3a 96 06 be 63 34 94 3c 0e 7d 25 bd 82 99 f4 bd
       -0.13143244 0.018091386 -0.040402465 -0.11943342
0003f0 07 a0 fe bd 74 bf 08 bd 95 26 86 bd c3 a7 8f bc
       -0.124328665 -0.03338571 -0.06550328 -0.01753605

unknown_5 f4 [8]
000000 56 cf 21 43 61 9e e3 3c b0 31 31 43 26 7d aa 3c
       161.8099 0.027785482 177.19409 0.020811629
000010 cd 92 00 3a 3b 06 32 43 6d e2 e3 3b dd d4 b5 39
       0.00049046875 178.02434 0.0069544823 0.00034681606

unknown_4 f4 [10]
000000 dd d4 b5 39 e0 88 ef 3d 0e ed ad 3c 51 6e f5 3d
       0.00034681606 0.11696029 0.0212312 0.11983932
000010 3c 19 39 3c fd 76 f5 3d dd d4 b5 39 de 88 ef 3d
       0.01129752 0.11985586 0.00034681606 0.11696027
000020 dd d4 b5 39 de 88 ef 3d
       0.00034681606 0.11696027

unknown_12 f4 [1, 2]
000000 ef d8 ff be 0c 88 0b bf
       -0.49970195 -0.54504466

unknown_11 f4 [2]
000000 fd 17 e9 bc 6e cc 0d 3c
       -0.028453821 0.008654697

unknown_0 f4 [8]
000000 ae cd e8 3f e9 fe 9f 42 c5 3f 03 41 aa fe 6f 42
       1.8187768 79.99787 8.203069 59.998695
000010 9d fe 7f 3f ee 4b cc c0 e9 fe 9f 41 00 00 00 00
       0.99997884 -6.3842688 19.999468 0.0

unknown f4 [10]
000000 00 00 00 00 f4 38 05 3f be 9a ec 39 6a 4d 04 3f
       0.0 0.5204003 0.0004512872 0.51680624
000010 99 d1 05 39 93 8e 05 3f 00 00 00 00 ef d3 04 3f
       0.0001276195 0.52170676 0.0 0.51885885
000020 00 00 00 00 ef d3 04 3f
       0.0 0.51885885

MatMul_2;StatefulPartitionedCall/MatMul_2 f4 [2, 256]
000000 71 e8 2a bb 21 fd 3a 3d a2 9f 34 bc f8 33 de bc
       -0.0026078487 0.04565156 -0.011024388 -0.02712439
000010 9d a3 6d bd 8b e9 85 3c 70 91 78 3b de 53 1d 3d
       -0.058017362 0.016346714 0.0037928484 0.03841006
000020 e4 75 a6 39 a5 d5 63 bc f0 16 ab bd 2b 46 6b 3d
       0.00031749823 -0.013905917 -0.08353984 0.057439964
000030 6b 1a 26 bb 84 e9 49 39 45 eb 47 bd 65 3b 95 3b
       -0.0025345336 0.00019255845 -0.048808355 0.0045541995
000040 f4 60 c8 ba 5e e2 db bc 70 a7 d3 3b aa 39 d3 bd
       -0.0015287683 -0.026841339 0.006459169 -0.10313733
000050 14 ea 45 bb 94 0f 5c bc db a9 39 be 60 4d 02 bc
       -0.0030199336 -0.0134314485 -0.18131201 -0.007953018
000060 46 b5 c0 bd 04 b6 e2 bb b7 0e 1f bb 38 bd 4f 3d
       -0.09409575 -0.0069186706 -0.0024270245 0.050717562
000070 e8 55 ba bc d7 70 82 bd e7 a1 f5 3c 83 6e 29 bd
       -0.022746041 -0.06369179 0.029984428 -0.041365158
000080 f9 5a 17 3c 17 a8 b5 bd c3 d8 33 3d 00 da 5c 3d
       0.009237998 -0.08869951 0.043907892 0.05391884
000090 cd 4a c1 3d e4 07 21 ba 4e ac bb bb a6 d5 25 bb
       0.09438095 -0.00061428384 -0.0057273274 -0.0025304346
0000a0 12 91 5d b9 66 41 b9 bb c7 d4 22 be b1 02 0e be
       -0.00021130245 -0.005653548 -0.1590148 -0.13868214
0000b0 f2 06 88 bb d3 92 a8 bd c5 49 96 ba 04 6e 75 b9
       -0.0041512186 -0.082311295 -0.0011466077 -0.00023406005
0000c0 1c 42 8b 3a 5e b0 3b bd 21 0d c1 ba d5 3b 9b bb
       0.001062456 -0.045822494 -0.0014728644 -0.004737357
0000d0 9d a6 e3 3d d7 3c 15 bd 3b e1 55 ba d7 22 f1 b8
       0.11115763 -0.036434975 -0.0008158867 -0.00011498265
0000e0 90 f9 c6 3c 87 77 8a bb a7 08 af bd ad 96 4e bb
       0.024288923 -0.0042256746 -0.08546572 -0.0031522915
0000f0 db 9d 22 3c e3 07 0b bb 6b c9 3d 3c e4 4b c1 ba
       0.009925331 -0.0021214418 0.011583666 -0.0014747349
000100 f3 99 76 3d ec e7 c2 bb d5 26 28 b9 fe cf 25 3a
       0.06020541 -0.0059480574 -0.00016036195 0.0006325244
000110 9a ba df 3d 07 3b 78 3c 7c 9c b7 bb 1a 67 37 bb
       0.10924263 0.015150792 -0.005603371 -0.0027985037
000120 a0 b2 da ba 7c 70 05 bb 2c a6 8b bd f9 01 64 b9
       -0.0016685314 -0.0020361235 -0.06818804 -0.0002174451
000130 a3 5e c9 3c 82 de e1 ba 42 ae 1f bd 9d a7 a6 bb
       0.02458126 -0.001723245 -0.038984545 -0.005085899
000140 dd b8 fe 3d f1 2f c3 bb d7 e9 dd bb e4 87 0e 3d
       0.124376036 -0.005956643 -0.0067722606 0.034797564
000150 05 b9 4c 3d c0 21 22 bc d0 53 97 bc a3 58 fb 3c
       0.049981136 -0.009895742 -0.018472582 0.030681914
000160 01 84 4f 3d 1e 16 79 3d 3f 64 2d 3e ab a5 46 3e
       0.050662998 0.06081211 0.16932772 0.19399135
000170 d1 a1 55 bc 3b b0 41 bb 1b 64 e6 bd 13 d1 15 3e
       -0.013039068 -0.0029554504 -0.11249562 0.14630537
000180 16 52 da 3c d3 ba ac b9 56 39 db 3c da 94 f1 ba
       0.02665047 -0.0003294559 0.026760738 -0.0018431202
000190 9c 24 d8 bb a4 3f 1c 3d 01 f0 4a bb ce 46 c1 ba
       -0.006596161 0.03814663 -0.0030965807 -0.0014745833
0001a0 34 0e 17 bc c2 17 7a 3a 3a a2 95 bd 70 b2 a7 3a
       -0.009219695 0.00095402834 -0.07306333 0.0012794267
0001b0 ac 4e 60 3c fd 03 97 bb 79 7b 7f be 14 c3 51 bd
       0.013690632 -0.0046086297 -0.24949445 -0.05121143
0001c0 08 27 1e bb 5b 91 67 bb 50 41 f5 bb 3f 77 97 3d
       -0.002413215 -0.0035334441 -0.0074845925 0.07395791
0001d0 d9 8c e7 bd 62 a9 bb 3a 26 4f 55 bb 0b 9d f6 bb
       -0.113061614 0.0014317448 -0.0032548397 -0.007526045
0001e0 e5 b6 0c bc f4 25 07 bd 96 ea a2 bb a6 2e 77 3d
       -0.008588527 -0.03299518 -0.0049718125 0.06034722
0001f0 82 d2 a2 bd 05 50 d4 bb 50 bb aa 3d e3 c5 5e 3b
       -0.079503074 -0.0064792656 0.08336508 0.0033992461
000200 0c f6 80 bc 4a 6f 2a bb 31 89 2d 3e 5b 2d bf bd
       -0.015742324 -0.0026006275 0.16946866 -0.09334823
000210 87 b0 44 3d 7d 22 aa 3a 3e b3 af 3d dc 34 6f 3e
       0.048019912 0.0012980249 0.085791096 0.23360008
000220 5e 8e 70 39 e4 eb 20 bb 6f 4b 56 39 d6 63 51 bb
       0.0002294122 -0.0024554664 0.00020436732 -0.0031950376
000230 3a e9 3a ba ca de ae 3c c5 9d b6 3e df d0 3a bb
       -0.00071300904 0.021346468 0.35667244 -0.0028505845
000240 c1 64 5d 3d 1b c7 43 3d 7f ab 55 3d e3 bc 99 3d
       0.054051165 0.047797304 0.052165505 0.075067304
000250 f6 fa 94 bb 94 48 01 3a dc ad 05 bb 86 4f 7c 3d
       -0.0045465184 0.00049317745 -0.0020397818 0.061599277
000260 a6 e9 54 3d 1c ce 69 bb 34 4e a4 3c 89 c6 33 3b
       0.051980637 -0.003567583 0.020056821 0.0027431569
000270 95 d3 d9 bc 81 4d bd ba a0 de ae 3c e1 9d 21 3a
       -0.026590148 -0.0014442654 0.02134639 0.00061651884
000280 f9 21 4e bb a6 a0 58 ba 12 9f a3 bc 3e 65 e8 3c
       -0.0031453355 -0.00082636846 -0.019973312 0.028368589
000290 e9 0f f1 bb 8d 10 c4 3c 0f bd a6 3c fa d4 d2 ba
       -0.007356633 0.023933673 0.020353822 -0.00160852
0002a0 b2 23 38 bd fe 1a 5c bb 8b 94 f7 bb 4f 9c 30 bd
       -0.044955917 -0.0033585425 -0.0075555495 -0.043117817
0002b0 10 7a bf bb 92 76 7d 3b 1a e6 09 3c 95 1f 4d bb
       -0.0058434084 0.003867541 0.008416677 -0.0031299342
0002c0 46 ee fe 3c 58 31 8c bc f1 e4 13 3b 6a d5 ff 3d
       0.031119477 -0.017113373 0.002256688 0.124918774
0002d0 52 a8 b2 39 d5 97 41 bd 21 a6 c2 bd b0 1e cc 39
       0.00034076214 -0.04726394 -0.09504343 0.00038932776
0002e0 e4 d2 87 be f5 60 94 bd 51 f4 3f bb e2 25 a2 3a
       -0.26528084 -0.072450556 -0.002928991 0.0012370909
0002f0 ec 59 b2 ba 76 b2 8c 3e 66 61 85 3d e1 0e 3a 3e
       -0.0013607121 0.27479905 0.06512718 0.18169738
000300 44 3c 38 bc 90 4b d5 bc 4d d7 f3 3b 76 11 a6 ba
       -0.011244837 -0.026037008 0.0074414373 -0.0012669999
000310 da 10 b9 ba 7d 98 b9 bb e7 fc be bc 25 4f 92 be
       -0.0014119402 -0.00566393 -0.023313953 -0.28576007
000320 0b c0 3c 3a 3e 89 aa 3d 1f b3 a3 3c f5 0e f9 bc
       0.00072002475 0.08326958 0.019982873 -0.03040264
000330 a1 3e 50 ba 2d 55 b1 bd 33 40 52 bc 41 73 19 bb
       -0.0007943903 -0.08658824 -0.012832689 -0.0023414644
000340 88 fc d0 3c 95 0a 02 be 69 49 a2 3b cc 4d 29 bc
       0.025511041 -0.12699349 0.004952599 -0.01033349
000350 22 03 2c bb f8 2f 8f bd b3 77 81 bb db 7e 11 3b
       -0.0026246984 -0.06991571 -0.003951037 0.0022200856
000360 29 fa 8e ba 29 d4 2e bc d4 9d d0 bc 95 f4 7d bd
       -0.0010908294 -0.0106707 -0.025465883 -0.06200083
000370 4b 1f 6b b9 01 66 e9 3c ed d2 92 bb a6 67 84 39
       -0.00022423004 0.028491022 -0.0044807107 0.00025254226
000380 15 10 d0 3c a8 c1 95 3d 2c 48 f9 3d 4c d8 e1 bb
       0.025398294 0.073123276 0.12171969 -0.0068922397
000390 e9 a7 c4 ba a6 38 82 bb ac 61 36 bb c0 4c 18 ba
       -0.0015003654 -0.003974038 -0.0027829213 -0.00058097765
0003a0 ec ac 9c 3d 2d 98 e1 3c 61 9e 66 3c 47 8e 8a bb
       0.0765017 0.027538383 0.014075846 -0.0042283866
0003b0 6a 15 5e bb 0d 22 1b 3d 64 10 17 3d 90 5d 05 bb
       -0.0033887275 0.03787427 0.036880866 -0.0020349957
0003c0 04 65 67 3d 1f f1 77 bb 05 6b a4 ba 43 80 42 bb
       0.05649282 -0.0037832928 -0.0012544101 -0.00296785
0003d0 12 4d 7d 3e e6 3e 6f bd 4a 68 4f 3c 09 ee 81 bb
       0.24736431 -0.058409594 0.012659142 -0.0039651436
0003e0 51 20 97 bb 43 05 97 3d 60 cd cb bb ab 80 9b 3d
       -0.0046120067 0.073740505 -0.006219551 0.07592901
0003f0 d3 5c 29 be 17 b6 b9 3c 3e 2a a8 3b 4e e5 e9 3c
       -0.16539316 0.022669835 0.005131989 0.028551724

MatMul;StatefulPartitionedCall/MatMul f4 [256, 18]
000000 c7 4c 11 be 2e 50 03 3e cc d9 73 be 0f f6 06 3e
       -0.14189444 0.12823555 -0.23813552 0.13179801
000010 2e 7e 8d bd 9f 83 97 3e 94 af 8a bd a3 d5 1e 3e
       -0.069088325 0.29592606 -0.0677177 0.15511183
000020 9c ac 7c be 1b 6e 2c 3e 6b 4f 3c 3e 87 93 18 be
       -0.2467522 0.16838877 0.1838967 -0.14900027
000030 f8 1f 8a be 8b 8a 52 bd 62 60 c5 3e 16 25 14 be
       -0.26977515 -0.051401656 0.38550097 -0.14467272
000040 19 3a 21 bd f2 16 aa be 9b 13 84 be 1d 54 81 bc
       -0.039362047 -0.3322063 -0.25796208 -0.015787179
000050 5e 58 1a be cd 34 57 3d 95 2d be 3e a8 fe 03 be
       -0.15072772 0.05254059 0.3714415 -0.12890112
000060 32 9a ee bd 31 ce 9d 3d d7 00 7b be 44 a4 fa bd
       -0.11650504 0.077053435 -0.24512039 -0.122383624
000070 ae 7f 0b 3e e6 26 b8 3d 27 11 fc 3c 44 c3 3d 3d
       0.13622925 0.08991794 0.030769898 0.046328798
000080 c4 dc ba ba 32 ac f4 ba 84 39 15 3e 0c b4 ec 3d
       -0.0014256467 -0.0018667041 0.14572722 0.11557779
000090 b0 10 91 3d 50 6c 33 3e 1d ba bc be c2 62 06 be
       0.07083261 0.17521787 -0.36860743 -0.1312361
0000a0 0f e5 23 be b2 f5 00 bd 7b 26 71 be 22 46 c9 3d
       -0.16005348 -0.031484313 -0.23549835 0.0982783
0000b0 1b 7a 9d be 3f 7c 04 3e 43 60 a0 bc 29 39 b3 be
       -0.30757222 0.12938021 -0.019577151 -0.35004547
0000c0 76 2d 56 3d 3c dd ad be 1b 65 90 bc 23 6f 75 be
       0.05228945 -0.3395785 -0.017626336 -0.23968177
0000d0 37 18 b2 3e a3 da 3e be 31 a0 b5 3d 2d 0c 1e be
       0.347841 -0.18638091 0.08868445 -0.15434332
0000e0 be 5f 2e 3e 3d 78 84 be 5a 6f 93 3c e8 5f 5d 3e
       0.1702871 -0.25872985 0.017997433 0.21618617
0000f0 a8 57 9a be 96 b8 3b be 24 f4 42 be a6 bd d2 3e
       -0.30145 -0.18332133 -0.19038445 0.41160315
000100 36 ee fe bd 0d 96 f1 ba c7 2a 91 bc 58 c5 71 3d
       -0.12447779 -0.001843156 -0.017720593 0.059026092
000110 90 e5 fc be 7e 15 90 3f 38 68 52 be 08 2d 72 3d
       -0.49393892 1.1256559 -0.20547569 0.059124976
000120 c9 91 9e be 3c 2c 37 3e 08 1b 27 3e f0 2c eb 3d
       -0.309706 0.17887968 0.16318905 0.114831805
000130 14 85 0a be 50 8b 3c 3c ea 97 6a be 68 63 d5 bd
       -0.13527328 0.011507824 -0.22909513 -0.10419351
000140 e0 a2 d0 bd 6f 70 85 3e 4b 60 d3 3e ad 2f bd be
       -0.10187316 0.26062343 0.41284403 -0.36950436
000150 96 08 53 be 2f ff 07 bd f3 79 64 3e 6f 51 cc 3d
       -0.20608744 -0.033202346 0.22312145 0.0997647
000160 59 cc 01 3e fc 26 89 bc 5e 5b 4f be 6f a2 05 bf
       0.12675609 -0.016742222 -0.20249698 -0.5220098
000170 4c 17 41 3e e3 a2 8f 3e a8 74 ed 3e 96 11 37 bf
       0.18856543 0.2805396 0.46378064 -0.7151121
000180 88 d5 68 3e aa 23 32 bd ce 77 d4 be f9 0f 8d 3e
       0.22737706 -0.043491043 -0.41497654 0.2755125
000190 d1 35 d8 3d a9 e2 5b bd f8 93 2b 3f a7 0f c7 3d
       0.1055714 -0.053682957 0.6702266 0.09719782
0001a0 22 2b 84 be db bc 80 bf 5b 11 64 3d 43 d7 3c be
       -0.25814158 -1.0057634 0.055680614 -0.18441491
0001b0 d2 0a 0a 3e fa 5f 13 3e f9 ba 9d 3d 66 56 ac be
       0.1348069 0.14392081 0.07701678 -0.33659667
0001c0 b0 3f 63 3e d3 15 38 be 0d 33 0f bf 35 6c 78 3e
       0.22192264 -0.17977075 -0.5593727 0.24260028
0001d0 86 18 ac be 76 66 60 be ac dc 0b 3e ac b1 bf be
       -0.3361246 -0.21914086 0.13658398 -0.3744024
0001e0 92 d5 b9 be b7 b4 54 be a1 85 9a 3e 7f f9 9e be
       -0.36295754 -0.20772062 0.30180076 -0.31049725
0001f0 be c8 8e 3e 29 4e 0a 3f 5a e5 5e be 8d 1f fd 3e
       0.2788753 0.5402551 -0.21767178 0.49438134
000200 c3 b8 2b be 55 a9 4b be c2 be aa be 59 c3 86 3e
       -0.167697 -0.19888814 -0.33348662 0.26320913
000210 40 ae dd 3d ae b2 ea bd 40 f8 b9 be 49 b2 ad be
       0.10824251 -0.11459862 -0.36322212 -0.33925083
000220 5f 30 15 3e b7 d1 6b be 89 a8 05 bf 11 8c 63 be
       0.14569233 -0.23029219 -0.5221029 -0.222214
000230 45 ba b7 3e 09 03 4b 3f 78 85 f3 3c 3c e8 e2 bd
       0.358843 0.79301506 0.029726729 -0.110794514
000240 7d db 0c bd 03 9f 15 be 7b 42 9f 3e f1 e7 ac be
       -0.034389008 -0.1461144 0.31105408 -0.33770707
000250 b5 86 d8 bd bb c0 2f 3e d5 01 c0 be d7 4a 05 be
       -0.10572568 0.17163365 -0.37501398 -0.1301683
000260 30 99 15 3e 1a e7 ce 3e a6 ee 9c bd b1 e2 26 be
       0.14609218 0.40410691 -0.07662706 -0.16297413
000270 c2 66 c8 3c e5 e2 1e 3d d4 20 99 be 35 c7 80 3e
       0.024463061 0.038790602 -0.29907858 0.25151983
000280 b1 5e cb bd 9f ed ba 3d 34 c4 af be 08 bd b9 bd
       -0.0993017 0.09127354 -0.3432938 -0.09069258
000290 c4 42 82 3c 4f 00 c5 3e 2c c7 50 3b b1 a6 c4 3e
       0.015900977 0.38476798 0.0031856997 0.38408425
0002a0 fa 2d d3 be 49 fa 71 be 2e df 13 3e 33 2a 60 be
       -0.41246015 -0.23630632 0.14440605 -0.21891098
0002b0 67 68 94 bd bd bf 85 3e e0 9e 17 be 82 d9 d2 3c
       -0.07246476 0.26122847 -0.148067 0.025738481
0002c0 16 46 20 3d 12 1c 76 be 91 e1 00 3c 2a 86 6b bd
       0.03912934 -0.24034145 0.007866279 -0.057500996
0002d0 30 9b 0a be 36 d5 ca bd 45 4d 03 bd 38 5b f5 bc
       -0.13535762 -0.09903948 -0.03205611 -0.029950723
0002e0 06 25 8b be e4 d2 33 3e d3 de 40 bd 0e 83 9d bc
       -0.27176684 0.17560917 -0.0470875 -0.01922753
0002f0 3f 48 d9 3d 06 0d aa 3e 8a 23 bf 3e a8 a9 d9 bd
       0.10609483 0.3321306 0.37331802 -0.106280625
000300 7f de 88 be 5d 2b 2d bd 0f 90 03 3d 5c 3d c9 bd
       -0.2673225 -0.042277683 0.032119807 -0.098261565
000310 a7 52 57 3d 95 e1 6c be 02 95 d8 be f8 91 42 be
       0.052569058 -0.23132928 -0.42301184 -0.19000995
000320 6f 85 05 be 11 40 c2 be ad 98 1f be c3 ed 86 be
       -0.13039182 -0.37939504 -0.15585585 -0.26353273
000330 8d 50 1a be f5 c6 8a 3e 17 f6 8f 3e b2 7b 28 be
       -0.1506979 0.27104917 0.2811744 -0.16453436
000340 e4 6c b5 be d4 69 22 be c2 85 7d 3e 3b b7 13 3c
       -0.3543464 -0.15860683 0.24758056 0.0090158535
000350 a5 f2 59 be b3 ce 73 bf f1 7c 99 3d 81 57 92 be
       -0.21283968 -0.9523727 0.07494534 -0.28582385
000360 e8 fe 82 ba 08 eb 26 be 5a 16 a4 3e d8 a4 86 3c
       -0.0009994181 -0.16300595 0.32048303 0.016436026
000370 53 d3 74 be 11 bb 45 3e ca 61 c7 3c a0 45 d3 bd
       -0.23908739 0.19309641 0.024338622 -0.10316014
000380 7a f5 1f bd 14 27 81 3e ed 90 29 3e ab d5 50 be
       -0.039052464 0.25225127 0.16559191 -0.20394008
000390 8f da d2 bd 50 35 83 3d 16 52 12 3e cf 5b 1c bf
       -0.10295593 0.06406653 0.14289126 -0.6107759
0003a0 a6 b8 03 bf 0b 33 cf be 76 4a 33 be e1 9a 23 3e
       -0.51453626 -0.4046863 -0.17508873 0.1597705
0003b0 76 6c e3 3e 2e a4 49 3e 81 3e b6 be 1f 17 05 be
       0.44418687 0.19691536 -0.35594562 -0.12997101
0003c0 d0 f4 d3 bd e5 05 8e bb e7 38 7b be d1 10 c5 be
       -0.10349429 -0.004334199 -0.24533425 -0.38489392
0003d0 50 fa f0 bc 7a 55 a5 be 04 d5 c2 3d 03 42 d1 be
       -0.029416233 -0.32291776 0.09513286 -0.40870675
0003e0 6e 64 a7 3e 8d 23 aa be 87 38 10 bf 5f b6 07 bf
       0.3269381 -0.33230248 -0.56336254 -0.5301265
0003f0 c1 dd 08 3e a9 d9 06 3e be 8b 1e 3e 43 ca aa be
       0.13365842 0.13168968 0.15482995 -0.33357438

MatMul_1;StatefulPartitionedCall/MatMul_1 f4 [256, 256]
000000 ce 48 11 3d 77 e0 87 3a b9 21 cb bc 46 86 f5 bd
       0.035469823 0.0010366578 -0.024796354 -0.11988501
000010 cb a1 96 bb aa 25 c9 bd ee 5c 34 bd 46 de 96 3d
       -0.004596924 -0.09821637 -0.044033937 0.07366614
000020 86 87 6e 3d d2 f5 93 bd c2 5a 03 bd 07 27 da bd
       0.058234714 -0.07224621 -0.032068975 -0.10651975
000030 69 cb b8 bd ff 01 09 3d 61 86 fc bc 02 f8 e1 bd
       -0.090231724 0.03344917 -0.030825796 -0.11033632
000040 a0 ba 9a 3c df 87 d2 3c b6 e2 b6 bd 18 c7 eb bc
       0.018887818 0.025699554 -0.089299604 -0.028781459
000050 73 ac c7 3c 3c e4 d8 bd 76 e5 dd 3c 4e 87 90 bc
       0.024374222 -0.10590407 0.027086955 -0.017642643
000060 3b df b0 3b e8 0c 1d 3a 9d ed 89 3d c4 15 92 bd
       0.005397705 0.0005990998 0.06734774 -0.07133058
000070 10 6b 37 3e 8d d4 84 bd 41 56 36 3d 75 f0 bb bb
       0.17911935 -0.06485853 0.044515852 -0.005735452
000080 41 30 15 3c 9a 24 d2 bc 99 1b 95 b8 b3 63 24 bd
       0.009105743 -0.025652219 -7.110014e-05 -0.040134143
000090 65 54 84 3c db 0e d1 bc a5 9a fe 3c 41 d2 95 bc
       0.016153524 -0.025519779 0.0310796 -0.018288733
0000a0 32 a9 6c bd 2c 25 7e bd b1 d5 5a 3c 4e 6b 0f bd
       -0.057778545 -0.06204717 0.013356612 -0.035014443
0000b0 9b ea de bd 44 ba c0 3c 54 af 06 3d 4d a3 83 bd
       -0.10884591 0.023526318 0.03288205 -0.064276315
0000c0 e5 2c 5a bc a1 91 b9 3d 1c 0e b3 3b 40 6c 26 3c
       -0.013316368 0.0906098 0.0054643285 0.010157645
0000d0 d3 68 10 3d 7b 3e 69 bd cc a0 53 3d 51 7c 58 3d
       0.03525622 -0.05694435 0.05166702 0.052852932
0000e0 82 ef 04 bc cc db 13 bb 2a 1d 88 bc b4 18 39 3d
       -0.008113744 -0.002256143 -0.016615469 0.045189574
0000f0 94 6e 28 3d 5c d2 b9 3c 57 80 36 bd 31 8c 12 bd
       0.04112108 0.022683315 -0.04455599 -0.03577823
000100 36 a3 b4 3d 0d 0b 50 3d 6c a5 ce 3d e5 86 7d 3c
       0.088201925 0.05079179 0.100901455 0.015474056
000110 09 4d bf 3d fa 64 e2 3c e2 0f 26 bd 6e 7b 2d bc
       0.09340865 0.02763604 -0.04054249 -0.01058851
000120 6b 5a a7 bb 8b e7 2d 3d a3 ad b5 bb 2b 09 c2 bc
       -0.005107214 0.042457145 -0.0055443808 -0.023686012
000130 e1 81 55 bb 91 6a 11 3d 1b 7d 97 bb fa 4f 8d bd
       -0.0032578635 0.03550202 -0.004623068 -0.0690002
000140 02 e6 9f 3d 80 17 6d bd 57 cf 25 bd c2 f4 c0 bc
       0.078075424 -0.05788374 -0.040480938 -0.02355421
000150 76 09 08 3d 97 25 9b 3c 58 94 26 bd 88 3c 17 3d
       0.033212148 0.018938823 -0.040668815 0.03692296
000160 85 96 e7 bc 54 82 c8 3b 56 d2 d1 3d 2c ff dc 3d
       -0.028270015 0.006119052 0.102451965 0.10790858
000170 61 2e 1b 3d 54 81 b7 bd 92 db 92 3c 84 34 b1 bc
       0.037886027 -0.08960214 0.017926965 -0.021631487
000180 42 c3 8d bd 3f f6 07 bd aa c6 34 bd ef 0f 4e 3d
       -0.06922008 -0.033193823 -0.044134773 0.050308164
000190 f3 57 99 3c a4 44 bf 3d c7 37 2c 3d 48 ac 2a 3d
       0.018718695 0.09339264 0.04204538 0.041668206
0001a0 14 ea 4e 3d 3d 55 2e 3d cc 7d a1 bd 45 ee 25 3b
       0.050516203 0.04256176 -0.07885322 0.0025319022
0001b0 11 7c 49 3c 97 05 1b bd 5e 21 75 3d 49 25 99 ba
       0.012297646 -0.037847128 0.059846275 -0.0011684085
0001c0 d9 ac b1 bd 6c 75 70 bc 04 04 d7 3d 7a 75 c4 3c
       -0.08675546 -0.014676433 0.10498813 0.023981798
0001d0 45 6d 9d bd d7 98 ef 3c e3 1f da bc 17 69 ac bb
       -0.07686857 0.029247684 -0.026626533 -0.005261551
0001e0 06 25 45 bd d6 1e ea bc 94 3c dd 3c 33 5d 34 3d
       -0.04813101 -0.028579157 0.027006425 0.044034194
0001f0 e7 ed 45 3d 4d dc 8b bd 2f 23 5e 3d a4 a7 0c 3d
       0.048322584 -0.068291284 0.054232772 0.034339562
000200 d5 ce 66 bd 37 9c 5f bd 8c d9 a5 bc 29 98 26 bd
       -0.056349594 -0.054592337 -0.020245336 -0.040672455
000210 cb e9 10 bc 13 00 13 be be a3 81 bc d3 ce 71 bd
       -0.008844803 -0.14355497 -0.015825149 -0.059035134
000220 28 a5 df bc 95 19 22 bc cc c7 f0 3d dc b4 3a 3d
       -0.027300432 -0.009893795 0.11756858 0.045582637
000230 e0 06 af bc 14 b0 7b bd e7 40 9d 3d fc 1a 66 3b
       -0.021365583 -0.061447218 0.07678395 0.0035111299
000240 8a d8 e1 3d 80 b0 61 bd 40 33 9e 3b ae e8 9c bc
       0.1102763 -0.055099964 0.004827887 -0.01915392
000250 de 76 8e bd d1 da a4 bd 37 53 43 bd 88 48 0c 3e
       -0.06956266 -0.080495484 -0.04768678 0.13699543
000260 c9 f0 8f bc 4a a5 b9 bb 97 8c a9 bc 92 d2 99 3c
       -0.01757087 -0.005665456 -0.020696921 0.018777166
000270 66 1c ac 3d f4 37 a4 3d 91 91 cb bd 92 53 e5 bd
       0.08403854 0.08018485 -0.09939874 -0.111975804
000280 65 d6 99 3c 35 dc 01 3d 69 98 0e 3d ec 44 24 3d
       0.01877899 0.031704146 0.03481332 0.04010479
000290 f8 e4 87 3d dc 94 8e bd 83 66 ec 3d c0 8e a7 3c
       0.06635469 -0.069619864 0.1154299 0.02045381
0002a0 9c 62 78 3d 3d 16 ef bb c0 27 71 3d 96 ee 46 3d
       0.060640916 -0.007296352 0.0588758 0.048567377
0002b0 9a 0a b8 bd 6a eb a1 bc 52 2e 67 bb 29 41 e4 3c
       -0.08986397 -0.019765574 -0.0035275412 0.027863102
0002c0 4b 4e 14 3d f1 01 c0 bc d1 a6 cc bd e3 23 50 3d
       0.03620748 -0.023438426 -0.09992755 0.050815474
0002d0 76 0c f0 3c 78 22 ed bc 95 0b 30 3d f4 25 10 3d
       0.029302817 -0.0289471 0.042979795 0.035192445
0002e0 fb ba 55 bb 88 6b 58 bd 29 75 c0 3c 61 8f 11 3c
       -0.003261267 -0.052836925 0.023493366 0.008884282
0002f0 c8 61 1e bb 59 56 0c bd 16 19 24 bd 60 f8 bf bc
       -0.002416717 -0.034262035 -0.040062986 -0.023433864
000300 62 c3 1a 3d ef 00 f9 bd 29 dc 7c 3d 56 3d 98 3c
       0.037783988 -0.12158381 0.0617334 0.018583935
000310 3e 2c 88 3d a7 ff d1 bc 41 e0 05 bb b7 8b ea 3b
       0.066490635 -0.0256346 -0.0020427855 0.0071577686
000320 c2 4f 6f bc e0 ac 94 3d 70 a4 12 3d 73 ce 61 3b
       -0.014606418 0.07259536 0.03580135 0.0034455329
000330 49 52 e5 bc ff a5 9d bd fa 53 48 bd 94 3d 01 bd
       -0.027993338 -0.07697677 -0.04890821 -0.031552866
000340 29 b6 15 3d 45 73 a2 bc 47 e0 80 3d 94 12 60 bd
       0.036550675 -0.019830355 0.062927775 -0.054705217
000350 d6 1a 96 3d de ef 0e bc ff 58 66 be 84 d4 13 bc
       0.07329337 -0.008724181 -0.22494887 -0.009022836
000360 51 4f 12 bd 6c 7b 9b bd bf 6f 19 bd e7 09 a1 3c
       -0.035720173 -0.075919 -0.037460085 0.019658042
000370 73 23 93 bd 77 da d4 3d b9 4a f9 3c a0 2e 6c bb
       -0.07184496 0.10393231 0.030431138 -0.0036038533
000380 50 4c 14 be 29 c1 dd bc 12 aa 5c 3d cd 53 2f bd
       -0.14482236 -0.027069645 0.05387313 -0.042804528
000390 3f c7 9d bc 27 c5 a6 3d 2f 50 ac bd dd d6 42 bd
       -0.019260047 0.081430726 -0.08413731 -0.04756819
0003a0 21 62 4d 3d 3c 14 b4 3c a8 6a f1 bd 2c 2f ce bc
       0.05014241 0.021982305 -0.11787921 -0.025168978
0003b0 2f b6 e2 bc f4 08 ae 3d a3 17 de 3d b8 a9 02 3d
       -0.027674763 0.084978014 0.10844352 0.031900138
0003c0 53 87 f1 bc 21 3e 1c bd e5 d9 9a 3d 5f 13 c2 3d
       -0.029483473 -0.03814519 0.07561091 0.09476351
0003d0 70 70 d8 bd 5a 2a 0e be 26 e5 06 3c fc 71 ad 3d
       -0.10568321 -0.13883343 0.008233344 0.084690064
0003e0 73 23 46 bd 70 14 50 3d d9 b8 43 bd f6 99 20 bd
       -0.04837365 0.05080074 -0.047783706 -0.03920933
0003f0 1c 69 e7 bd ee 47 a9 bc 0f 5f ad 3d 04 a1 34 3d
       -0.11299345 -0.020664182 0.084653966 0.04409887
